pth/model.pth (torch, 507637 bytes, 16 tensors)

weight f4 [6, 3, 3, 3]
0	0x3ec7a250	0.38991022
1	0x3f8e5d2c	1.1122184
2	0x3edaadab	0.42710623
3	0xbf3a543c	-0.7278478
4	0xbd2c5bcf	-0.042079743
5	0xbd90f581	-0.07078076
6	0xbe4ca934	-0.19986421
7	0xbf478693	-0.7793972
8	0xbe535356	-0.20637259
9	0x3ef6feee	0.4824137
10	0x3f9cb6d6	1.2243297
11	0x3f3b682d	0.73205835
12	0xbf1c457b	-0.6104352
13	0xbeb09909	-0.34491757
14	0xbcd57bd6	-0.026060026
15	0xbecba6ff	-0.39775845
16	0xbf90be1c	-1.1308017
17	0xbf272e7b	-0.653053
18	0x3dd22175	0.10260288
19	0x3f845c03	1.034058
20	0x3e5858c2	0.21127608
21	0xbed2a79b	-0.41143498
22	0x3ea6a2b8	0.3254602
23	0x3edb3a9d	0.42818156
24	0xbdb992fe	-0.0906124
25	0xbf34106e	-0.7033757
26	0x3cf9eb5c	0.030507736
27	0xbeb0bf31	-0.34520867
28	0xbc15403f	-0.009109556
29	0x3d490b9f	0.04908335
30	0xbf6e98e6	-0.93202055
31	0x3f0a3268	0.53983164
32	0x3f0426fb	0.5162198
33	0xbf88c2d8	-1.0684462
34	0x3f30e378	0.6909709
35	0x3e90834b	0.2822517
36	0x3c5a5704	0.01332641
37	0x3f0d3487	0.55158275
38	0x3f21d9f8	0.6322322
39	0xbec1aef5	-0.37828794
40	0x3f992b68	1.1966372
41	0x3f7a2d19	0.97725064
42	0xbea0b9fd	-0.31391898
43	0x3f9f7635	1.2457949
44	0x3f8391ce	1.0278871
45	0xbf4e45fe	-0.8057555
46	0xbea1f55f	-0.31632516
47	0xbe64ccb8	-0.22343719
48	0xbfa0da6d	-1.2566658
49	0xbe8c88d2	-0.27448136
50	0xbe5e2741	-0.21694662
51	0xbfc7aa44	-1.5598836
52	0xbde0d193	-0.10977473
53	0xbdb842bf	-0.08997106
54	0xbed7ecfa	-0.42172986
55	0x3d98b77d	0.074568726
56	0x3c205e8a	0.009788165
57	0x3ed4bdd6	0.41551083
58	0x3ea49b4a	0.32149726
59	0x3ea8c238	0.32960677
60	0x3f142973	0.57875746
61	0x3f1699ca	0.58828413
62	0x3ef243e8	0.47317433
63	0xbe961021	-0.2930918
64	0xbe191752	-0.14950302
65	0xbefc1dc2	-0.49241453
66	0x3d5a5ef3	0.053313207
67	0x3e29435e	0.16529605
68	0xbbd066be	-0.006359904
69	0xbeae91bb	-0.3409556
70	0xbe0020bf	-0.12512492
71	0xbe0b130b	-0.13581483
72	0x3f154356	0.5830587
73	0x3f096b0a	0.53678954
74	0x3e431eb7	0.19054686
75	0x3eee08b2	0.4649101
76	0x3f0b67c3	0.544552
77	0x3e9d01ff	0.30665585
78	0x3e1859ff	0.14878081
79	0x3db87fcd	0.09008751
80	0xbee8210a	-0.45337707
81	0xbebf64e8	-0.37381673
82	0xbfc61567	-1.5475281
83	0xbedaa522	-0.4270411
84	0xbe57d20d	-0.21076222
85	0x3dd8dadd	0.1058862
86	0xbd111b71	-0.03542656
87	0x3f04e67f	0.5191421
88	0x3f94f13e	1.1636121
89	0x3e777bb2	0.2416828
90	0xbe261146	-0.16217527
91	0xbfabc19a	-1.3418458
92	0xbd73c7b5	-0.059516627
93	0x3c6c0f0b	0.014407883
94	0x3eb79b80	0.35860825
95	0x3e843530	0.2582183
96	0x3f32cbbf	0.6984214
97	0x3fd6b02c	1.6772513
98	0x3edee72e	0.4353575
99	0xbe6c47b8	-0.23074234
100	0xbfa4a25e	-1.286205
101	0xbdb0bf37	-0.08630221
102	0xbe092513	-0.13393049
103	0xbeb12c73	-0.34604225
104	0xbeceee0f	-0.40416
105	0x3e867b88	0.26266122
106	0x3f47414c	0.7783401
107	0xbd92351a	-0.071390346
108	0xbed3ab2d	-0.41341534
109	0xbf052d0f	-0.5202188
110	0xbf3c4a75	-0.7355111
111	0xbf048b60	-0.5177517
112	0xbf9ac71a	-1.2092011
113	0xbf9f8b5d	-1.2464405
114	0xbee1256f	-0.43973872
115	0xbf2ffd83	-0.68746203
116	0xbea018c7	-0.31268904
117	0x3ea4ad84	0.32163632
118	0x3f0a4c91	0.5402308
119	0xbdba9c33	-0.09111824
120	0x3edd2145	0.43189445
121	0xbe7d6ad8	-0.24747789
122	0xbf189bf1	-0.5961295
123	0xbe962d8b	-0.29331622
124	0xbe9371df	-0.28797814
125	0xbeb20f70	-0.34777403
126	0x3f876271	1.0576917
127	0x3f9d69d0	1.2297916
128	0x3f168675	0.58798915
129	0x3f918f99	1.1371948
130	0x3f6ba153	0.92043036
131	0x3ecbee93	0.39830455
132	0x3e60055f	0.21877049
133	0x3ef5d67f	0.4801521
134	0x3e9b0228	0.30275083
135	0x3f79131d	0.9729479
136	0x3fb2c2f1	1.3965741
137	0x3f8e86b9	1.1134864
138	0x3f297459	0.6619316
139	0x3fa6f924	1.3044782
140	0x3f9ae50e	1.2101152
141	0x3b6d9475	0.0036251817
142	0x3efbf3e2	0.49209505
143	0x3e20c37a	0.15699568
144	0xbf8b95a4	-1.0905042
145	0xbfaa0a8b	-1.3284467
146	0xbf920950	-1.1409092
147	0xbf637268	-0.88846445
148	0xbf9d0e8f	-1.2270068
149	0xbf83c9da	-1.0295975
150	0xbf2e2a9c	-0.68033767
151	0xbf379ee4	-0.7172682
152	0xbf30f498	-0.6912322
153	0x3ddee1e7	0.10882931
154	0xbdb757ed	-0.089523174
155	0xbe05775c	-0.13033813
156	0xbcc3bfc6	-0.023895156
157	0xbe829e91	-0.25511602
158	0xbddb4a9e	-0.107075915
159	0x3e9d321f	0.30702302
160	0xbc25b6be	-0.01011437
161	0x3e3a72ad	0.18207808

bias f4 [6]
0	0x3e37b49b	0.1793999
1	0x3e0cc07c	0.13745302
2	0xbf89c524	-1.0763288
3	0x3e135541	0.1438799
4	0x3eb3edf1	0.35142472
5	0x3f1cc0a6	0.6123146

weight f4 [16, 6, 3, 3]
0	0xbf37ceea	-0.718001
1	0x3e5aa447	0.2135173
2	0x3f099f6e	0.53758895
3	0x3f60868e	0.87705314
4	0xc00a0a7c	-2.15689
5	0x3f801388	1.000596
6	0x3ddadc6f	0.106865756
7	0x3ea931af	0.33045718
8	0xbf155889	-0.5833822
9	0xbec63777	-0.3871419
10	0xbf19de59	-0.601049
11	0x3f764bde	0.96209514
12	0x3f617752	0.88072693
13	0xbf90309b	-1.1264833
14	0x3eb567f2	0.35430866
15	0xbea82727	-0.3284237
16	0x3e9c034f	0.30471274
17	0xbef5aab7	-0.47981808
18	0x3f174d2c	0.5910213
19	0xbfaec660	-1.3654289
20	0xbe9b9e29	-0.30394104
21	0x3f046267	0.5171265
22	0x3ebf8318	0.37404704
23	0xbf78f474	-0.97248006
24	0x3d09e454	0.033665016
25	0x3f40dec7	0.7533993
26	0xbc565045	-0.013080661
27	0x3efeda92	0.4977613
28	0x3ef66801	0.48126224
29	0xbf81fc58	-1.0155134
30	0xbfa2ba8a	-1.2713177
31	0x3fe6893e	1.8010633
32	0xbf17746f	-0.5916204
33	0xbed15391	-0.4088407
34	0xbe72c891	-0.23709323
35	0x3f1ecfe5	0.6203597
36	0x3eb838e9	0.3598092
37	0xbf2c25ec	-0.67245364
38	0x3eacd5d3	0.33756885
39	0x3d99a647	0.07502418
40	0xbe012a1d	-0.12613721
41	0xbe44bab5	-0.19211848
42	0x3ec216d8	0.37908053
43	0xbd299c68	-0.041408926
44	0xbe55ed2d	-0.20891257
45	0xbea32c87	-0.3186991
46	0x3e0e32b3	0.13886528
47	0x3ddc3e5d	0.10754082
48	0xba23ca0c	-0.0006248064
49	0xbe42e68b	-0.19033258
50	0x3e2f7947	0.17136107
51	0x3d0899a6	0.033349656
52	0x3e1f2518	0.15541494
53	0xbe05785b	-0.13034193
54	0x3eb04e68	0.3443482
55	0x3e49161e	0.19637343
56	0x3e38df24	0.18053871
57	0xbdd2c4a2	-0.10291411
58	0x3da6bf9b	0.081420146
59	0xbf0a9aab	-0.54142255
60	0xbe7b4e81	-0.24541666
61	0x3eadcb81	0.33944324
62	0xbead7a64	-0.3388244
63	0x3db0e826	0.08638029
64	0x3cf0de88	0.029402986
65	0xbed4503c	-0.41467464
66	0xbdbb2dc8	-0.091395915
67	0x3f51b2fd	0.8191374
68	0xbeaab247	-0.3333914
69	0xbc77d952	-0.015127497
70	0x3f4c7c49	0.79877144
71	0xbf148e24	-0.5802939
72	0xbf0e1c51	-0.5551196
73	0xbde542ce	-0.111943826
74	0x3e9bae15	0.30406252
75	0xbe9cca60	-0.3062315
76	0xbede0a10	-0.43367052
77	0x3e3a46e6	0.18191108
78	0x3d9ad6f4	0.0756053
79	0xbe6b8fed	-0.23004122
80	0x3ef66d73	0.48130378
81	0xbedd5424	-0.43228257
82	0xbe8199f7	-0.25312778
83	0x3efb282a	0.4905408
84	0x3e4e9ea6	0.20177707
85	0xbf85b450	-1.0445652
86	0x3e329afa	0.17441931
87	0x3d605907	0.054772403
88	0xbf3c7bb0	-0.7362623
89	0x3e1bb398	0.15205228
90	0x3e9b90a7	0.30383798
91	0xbe9b5b4e	-0.30343097
92	0xbe6f54a6	-0.23372135
93	0x3f22b43c	0.63556266
94	0xbe8d439b	-0.2759064
95	0x3c99e2de	0.018784937
96	0x3f46601c	0.774904
97	0xbe8ea0ef	-0.27857158
98	0x3e6fbfd3	0.23413019
99	0x3f1ab032	0.604251
100	0x3db286ca	0.08717115
101	0xbf01f27b	-0.5076062
102	0x3f508f31	0.8146849
103	0x3ee08371	0.43850282
104	0xbf1a34d3	-0.60236853
105	0x3f307916	0.6893476
106	0x3ea692a7	0.32533762
107	0xbf3c1243	-0.73465365
108	0x3e4fd2b0	0.20295215
109	0x3d1ab979	0.037774537
110	0x3d9df80e	0.07713328
111	0xbd86f916	-0.06590478
112	0x3e8f2259	0.27955893
113	0xbe11e2c2	-0.14246657
114	0xbe5dc951	-0.21658827
115	0x3eba9816	0.36444157
116	0x3f07d634	0.53061223
117	0xbdf66a9f	-0.12032055
118	0xbf2179f3	-0.63076705
119	0xbf10395f	-0.5633754
120	0xbe79455d	-0.24342866
121	0xbe3be0c0	-0.18347454
122	0xbd4a7fc6	-0.04943826
123	0x3ee9ac10	0.45639086
124	0x3d0132ea	0.031542696
125	0x3e9d4493	0.3071638
126	0xbca70fe6	-0.020393323
127	0xbe97a019	-0.29614332
128	0x3bdf3235	0.006811405
129	0xbdff79db	-0.12474414
130	0xbe5252f0	-0.2053945
131	0xbb4905c8	-0.0030673612
132	0xbe2c2add	-0.16813226
133	0xbe6d3e84	-0.23168379
134	0x3e644c8e	0.22294828
135	0x3f1362b4	0.57572484
136	0xbd8b3d93	-0.06798854
137	0xbd21fd30	-0.0395481
138	0xbe06811e	-0.13135192
139	0xbebf2d83	-0.3733941
140	0xbebf29fe	-0.37336725
141	0xbee7cf0e	-0.45275158
142	0xbe9030ac	-0.28162134
143	0xbe92ca48	-0.28669953
144	0x3ec37685	0.3817636
145	0x3f13fb9d	0.57805806
146	0xbe9fbd10	-0.3119893
147	0x3f226d7c	0.6344831
148	0x3f562d24	0.8366263
149	0xbda65a11	-0.081226476
150	0xbdad8906	-0.08473401
151	0x3e8bcd84	0.27305233
152	0xbd8c9379	-0.06864066
153	0xbe417c4d	-0.18895073
154	0xbeb006cc	-0.34380186
155	0xbd413aea	-0.047175325
156	0xbdb6e514	-0.08930412
157	0xbf08b3da	-0.5339943
158	0xbcca10cd	-0.024666214
159	0x3dcf2781	0.10114957
160	0xbd991881	-0.07475377
161	0xbe0aa4de	-0.13539454
162	0x3daf64e2	0.08564164
163	0x3e38a2ba	0.18030825
164	0x3ec50db2	0.3848701
165	0xbe5bdf2d	-0.21471854
166	0xbed17d57	-0.4091594
167	0xbe1d480f	-0.1535952
168	0xbe49a7df	-0.19692944
169	0xbe9fcb2a	-0.3120969
170	0x3c7b4fdf	0.015338867
171	0xbde3295e	-0.110918745
172	0xbf0ee440	-0.5581703
173	0xbec199b8	-0.3781259
174	0xbe668442	-0.2251139
175	0xbf289678	-0.658546
176	0xbecb6e0e	-0.39732403
177	0x3f071c59	0.5277763
178	0x3eefcb19	0.4683464
179	0x3e296dc4	0.16545779
180	0xbdb931fe	-0.090427384
181	0xbe9c5424	-0.30532944
182	0xbdc9016d	-0.09814725
183	0x3ec417b5	0.38299337
184	0x3e046693	0.12929754
185	0x3e541915	0.20712693
186	0x3e0fc1f6	0.14038834
187	0xbdd4d67c	-0.10392472
188	0xbc22c588	-0.00993479
189	0xbea51b2a	-0.32247287
190	0xbe49c159	-0.19702663
191	0x3daa89fc	0.083271
192	0x3e81c958	0.25348926
193	0x3ce41329	0.027841168
194	0xbebd265c	-0.36943328
195	0x3f244650	0.6416979
196	0x3ef6f0cf	0.48230597
197	0x3eae85b5	0.34086385
198	0x3e9740e1	0.29541686
199	0x3efa4b35	0.48885503
200	0x3ee7ca92	0.45271736
201	0x3ecfdb5f	0.40597054
202	0x3e1c2d00	0.15251541
203	0x3bfb7538	0.0076738857
204	0xbebfb170	-0.37440062
205	0xbf2b7bd6	-0.66985834
206	0xbf204442	-0.62604153
207	0xbf111c6d	-0.56684
208	0xbf7d1b1b	-0.98869485
209	0xbf5de6b3	-0.86680144
210	0xbde47c5d	-0.11156533
211	0xbc3dbba4	-0.011580382
212	0x3c3c3948	0.011488266
213	0x3f565fc0	0.8373985
214	0x3f8a42b5	1.0801607
215	0x3f87ab71	1.0599195
216	0x3eddd0e0	0.4332342
217	0x3e89c5bc	0.26908672
218	0xbee88db7	-0.4542062
219	0x3c13d3a2	0.009022625
220	0x3e16485d	0.14676042
221	0xbe1681d8	-0.14697969
222	0xbe477f42	-0.19482139
223	0x3db1fc29	0.08690674
224	0xbea6fb97	-0.32613823
225	0x3e106306	0.14100274
226	0xbecbc0a7	-0.3979542
227	0xbec1356e	-0.37736076
228	0x3eaf3bcf	0.34225318
229	0x3e0cc14e	0.13745615
230	0xbe8127fa	-0.25225812
231	0x3ea67193	0.32508525
232	0x3d716432	0.058933444
233	0xbe2dbe84	-0.16967207
234	0xbea63896	-0.32465047
235	0x3f2a2ee0	0.66477776
236	0x3f01c59e	0.50692165
237	0xbe74e9d6	-0.23917326
238	0x3ecc543b	0.39908013
239	0x3eaad1d0	0.333632
240	0xbe146543	-0.14491753
241	0x3ead74f9	0.33878306
242	0x3d23115e	0.039811485
243	0xbe6ae11f	-0.2293744
244	0x3cf1467c	0.029452555
245	0x3ef2b797	0.47405693
246	0xbf01595f	-0.50526994
247	0xbf2c733d	-0.6736334
248	0xbd436502	-0.04770375
249	0x3e79f8e7	0.24411355
250	0xbddc96dd	-0.107709624
251	0x3e0a512b	0.13507526
252	0xbc4f11c1	-0.01263851
253	0x3f051677	0.51987404
254	0x3ca35799	0.01993923
255	0xbe316264	-0.1732269

bias f4 [16]
0	0x3bd01d40	0.006351143
1	0xbf0bf452	-0.5466968
2	0x3f641c06	0.8910526
3	0xbe86745a	-0.26260644
4	0xbf8971e9	-1.0737888
5	0xbe9b6799	-0.30352476
6	0xbf3d522b	-0.73953503
7	0x3ce8f448	0.028436795
8	0xbf00c916	-0.5030683
9	0x3f1b74ad	0.6072491
10	0xbeec1573	-0.46110114
11	0xbeb7da16	-0.35908574
12	0x3e77092a	0.2412459
13	0xbd08c6e0	-0.033392787
14	0xbe700b47	-0.23441802
15	0xbf65e2fc	-0.89799476

weight f4 [32, 16, 3, 3]
0	0xbe7c8591	-0.24660327
1	0xbd85e598	-0.06537932
2	0x3d2c4f87	0.04206803
3	0xbddf2668	-0.10895997
4	0xbe2b0bf2	-0.16703776
5	0xbb951c49	-0.004550491
6	0xbe156fe1	-0.1459346
7	0xbea1a50f	-0.31571242
8	0x3e280c57	0.16410957
9	0xbdbd2e68	-0.09237367
10	0xbcea53cd	-0.028604412
11	0xbe8aab82	-0.27083975
12	0xbdb6e926	-0.08931188
13	0x3d0d55d7	0.03450569
14	0xbe6f74ef	-0.2338445
15	0x3d3a8c64	0.045544043
16	0x3e8215e7	0.25407335
17	0x3dec6b07	0.11543851
18	0xbe662a07	-0.2247697
19	0x3e426498	0.18983686
20	0xbe55edb4	-0.20891458
21	0x3e543500	0.20723343
22	0x3eef0ab1	0.46687844
23	0xbeb84a8c	-0.35994375
24	0x3e9e32df	0.30898187
25	0x3e75e3c4	0.24012667
26	0xbe961e9d	-0.2932023
27	0xbd1982a7	-0.037478115
28	0x3c5a17b3	0.013311314
29	0x3db65b90	0.08904183
30	0xbe274825	-0.16336115
31	0x3eccb4fe	0.39981836
32	0xbd6b3405	-0.057422657
33	0xbe2a38b6	-0.16623196
34	0x3e859143	0.26087388
35	0xbde7d115	-0.11319176
36	0x3dd87c32	0.105705634
37	0x3eaee3e3	0.3415824
38	0xbe9e4044	-0.30908406
39	0x3e8a38e8	0.2699654
40	0x3e872f77	0.264034
41	0xbf202aa5	-0.6256507
42	0x3cf9f4eb	0.030512294
43	0xbe870189	-0.2636836
44	0xbee2b13b	-0.4427584
45	0xbe411697	-0.18856274
46	0xbea21b80	-0.31661606
47	0x3ea6e1de	0.32594198
48	0xbe0eb507	-0.13936244
49	0x3ea26a9a	0.31721956
50	0x3e44ac2f	0.19206308
51	0x3e8f599d	0.27998057
52	0x3d913f57	0.07092159
53	0xbd14e748	-0.03635338
54	0xbcfd8f2e	-0.030952062
55	0xbe6dff6c	-0.23241967
56	0xbe9df302	-0.30849463
57	0x3e662540	0.22475147
58	0xbe4babc2	-0.19889739
59	0xbc271ea4	-0.010200176
60	0x3e48b91f	0.19601868
61	0xbe1fd318	-0.1560787
62	0x3cf1e24e	0.029526856
63	0xbd12ae82	-0.035810955
64	0xbbc6e316	-0.006069551
65	0xbb26fa53	-0.0025478795
66	0x3d15dea5	0.036589283
67	0xbc98e730	-0.018664926
68	0x3daa1d13	0.08306327
69	0x3d34dfa6	0.0441586
70	0x3a722bdd	0.00092381035
71	0xbd9488e5	-0.07252673
72	0xbdc2756a	-0.09495051
73	0x3d6af67f	0.057363983
74	0x3e25cfd5	0.16192563
75	0x3e978bbc	0.29598796
76	0xbc40aa9d	-0.011759427
77	0xbe58ea18	-0.2118305
78	0xbd24fdec	-0.04028122
79	0xbe5b3120	-0.21405458
80	0xbd72aeac	-0.05924861
81	0x3e8028b5	0.25031057
82	0x3d2194a1	0.039448384
83	0xbe803e60	-0.25047588
84	0x3f07cc38	0.5304599
85	0xbe613c3b	-0.21995632
86	0xbeea3f9e	-0.4575166
87	0x3b36f821	0.0027918892
88	0xbe22494d	-0.15848275
89	0xbdd9b682	-0.10630514
90	0xbe6983f4	-0.22804242
91	0x3e7993a9	0.24372734
92	0xbe8e8c8b	-0.278416
93	0xbb023706	-0.0019869222
94	0x3c8cc28f	0.017182617
95	0x3d2e8911	0.042611185
96	0x3e9dfc8b	0.30856737
97	0xbe3f2a6f	-0.18668531
98	0xbd85a15c	-0.065249175
99	0xbdfef6b3	-0.12449398
100	0x3b98291d	0.004643573
101	0xbd18c266	-0.037294768
102	0xbe2e65f9	-0.17031087
103	0xbe93c10e	-0.28858227
104	0xbba994a0	-0.005175188
105	0xbe28f1a3	-0.16498427
106	0xbe19c98b	-0.15018289
107	0xbd4a6d02	-0.049420364
108	0x3e27e119	0.16394462
109	0xbe178456	-0.14796576
110	0x3ecf6e96	0.40514058
111	0xbe3fe486	-0.18739519
112	0x3f31b289	0.6941305
113	0x3ee16cf0	0.44028425
114	0x3e8deb9a	0.27718812
115	0x3e7dc7d2	0.24783257
116	0x3daf7584	0.08567336
117	0xbec37da0	-0.38181782
118	0xbe846a11	-0.25862172
119	0x3d7af807	0.061271694
120	0xbda38a54	-0.07985368
121	0xbe531490	-0.20613313
122	0xbd397917	-0.045281496
123	0x3ad51476	0.0016256708
124	0x3c068f49	0.008212873
125	0xbdf53d69	-0.11974604
126	0x3c93ba83	0.018033272
127	0xbd35bd07	-0.044369724
128	0xbe4a47c7	-0.19753943
129	0x3bd6ecb5	0.0065589794
130	0xbe6101d8	-0.2197336
131	0xbe063389	-0.13105597
132	0xbd7d433a	-0.06183169
133	0x3c54eae9	0.01299546
134	0x3e7cb0a6	0.24676761
135	0x3e055c86	0.13023576
136	0x3e63db54	0.22251636
137	0xbe458e57	-0.1929258
138	0x3eeb3063	0.45935354
139	0xbe47d260	-0.19513845
140	0xbee2ed1d	-0.44321528
141	0x3dac557a	0.08414741
142	0xbeaa1fd1	-0.332274
143	0x3db147d2	0.08656277
144	0xbe381839	-0.1797799
145	0xbeafb2c0	-0.34316063
146	0xbea1edf0	-0.31626844
147	0xbe4f8a4a	-0.20267597
148	0xbe08c584	-0.13356596
149	0xbe28bc3f	-0.1647806
150	0x3c4150d7	0.011799059
151	0xbdee51cb	-0.116366945
152	0xbd3363b7	-0.043796267
153	0xbe2d3bc5	-0.16917332
154	0x3e006299	0.12537612
155	0x3da3cb6e	0.079977855
156	0xbce56ada	-0.028005052
157	0x3d8f8edd	0.07009671
158	0xbdea51ad	-0.1144136
159	0xbd626513	-0.055272173
160	0x3cd39af0	0.025830716
161	0xbd564c28	-0.052318722
162	0x3e321cae	0.17393753
163	0xbe26df2b	-0.1629607
164	0x3e027671	0.12740494
165	0xbe7b3916	-0.24533495
166	0xbddad1ed	-0.106845714
167	0x3f0bf634	0.5467255
168	0xbee2d09d	-0.44299784
169	0x3ec0820d	0.3759922
170	0x3dda1a37	0.10649531
171	0xbe0cf63e	-0.13765809
172	0x3e9a38d7	0.3012149
173	0xbd1f9ae4	-0.038966075
174	0x3d8f6cc4	0.07003167
175	0xbe77828b	-0.24170892
176	0xbd646d3f	-0.055768248
177	0xbef4c6f0	-0.47808027
178	0xbde23a43	-0.11046269
179	0x3d87a3f2	0.06623067
180	0xbe11bf18	-0.14233053
181	0xbcf7a856	-0.030231636
182	0x3e036741	0.12832357
183	0xbef4af0c	-0.477898
184	0x3a85d990	0.0010211933
185	0x3d9cbd73	0.07653322
186	0xbdf31b1c	-0.11870405
187	0x3e385d22	0.18004277
188	0xbd7b2095	-0.06131037
189	0x3e1d7819	0.15377845
190	0x3f0d2001	0.5512696
191	0x3db547f0	0.088516116
192	0x3f67f68a	0.90610564
193	0xbdc7efa1	-0.097625025
194	0xbe84fa98	-0.25972438
195	0xbda5805c	-0.08081123
196	0xbe6ff9a9	-0.23435082
197	0xbef22d90	-0.47300386
198	0xbda151d1	-0.07876933
199	0xbd57eae3	-0.05271424
200	0x3d62d384	0.0553775
201	0x3be8b6ef	0.0071018855
202	0x3dd1324e	0.10214673
203	0xbe3e289b	-0.18570177
204	0x3df0d8de	0.11760114
205	0xbee91979	-0.45527247
206	0xbe678eb7	-0.22613035
207	0xbc8959fe	-0.016766544
208	0xbc170176	-0.009216657
209	0xbd86f3b0	-0.065894485
210	0xbd8c1826	-0.068405434
211	0xbc9a6f5a	-0.018851925
212	0xbd0ecd96	-0.03486403
213	0xbbc98971	-0.0061504175
214	0xbd994f79	-0.07485861
215	0x3d8db377	0.06918996
216	0x3eadeda6	0.33970374
217	0xbe1667bd	-0.1468801
218	0xbd38a39e	-0.045077913
219	0xbe8f1518	-0.2794578
220	0x3f034494	0.51276517
221	0x3d88b8b8	0.06675857
222	0x3e695544	0.22786433
223	0xbe494148	-0.19653809
224	0xbeb08e0a	-0.34483367
225	0xbe0f50b6	-0.13995633
226	0xbe8305cc	-0.2559036
227	0xbe063470	-0.13105941
228	0xbef53e27	-0.4789898
229	0x3d022d30	0.031781375
230	0x3ab67a6b	0.0013921981
231	0x3e199fbb	0.15002339
232	0x3e1b40c2	0.15161422
233	0xbde3ca9c	-0.11122629
234	0x3c819ce1	0.015821876
235	0xbeafed15	-0.34360567
236	0xbcc389af	-0.023869364
237	0xbefffbe1	-0.49996856
238	0x3e7190fb	0.23590462
239	0x3d876c91	0.06612504
240	0xbd96ce69	-0.07363588
241	0x3eb3921d	0.35072413
242	0x3d8e96ec	0.0696238
243	0xbdd38f84	-0.10330108
244	0x3eb7869b	0.35844883
245	0xbda2a11d	-0.07940886
246	0x3e7fb84f	0.24972652
247	0xbe52ce67	-0.20586549
248	0xbe642e47	-0.22283278
249	0xbdc20098	-0.094727695
250	0xbe28acfe	-0.16472241
251	0x3d9d3166	0.07675438
252	0x3d0c505b	0.03425632
253	0x3f040589	0.51570946
254	0x3e320603	0.17385106
255	0x3f35b19a	0.70974123

bias f4 [32]
0	0x3eba7f64	0.36425316
1	0xbf150a5c	-0.5821893
2	0x3ea14150	0.31495142
3	0x3ed953e4	0.42446816
4	0x3f24a1fe	0.6430968
5	0xbcda6f81	-0.026664497
6	0xbeebac35	-0.4602982
7	0x3f93f47f	1.1558989
8	0xbc722db6	-0.014781406
9	0x3f84b0fe	1.0366514
10	0x3e7e9c99	0.24864425
11	0xbe2b611c	-0.16736263
12	0xbf2698f9	-0.6507717
13	0x3d9a9471	0.07547844
14	0x3e258d4b	0.1616718
15	0xbecdc3c2	-0.40188414
16	0xbe7b439a	-0.24537507
17	0x3f521bbc	0.8207357
18	0xbe8ecc2d	-0.2789015
19	0xbee026f9	-0.43779734
20	0xbeccc1dc	-0.39991653
21	0x3f783359	0.9695335
22	0xbec0ff43	-0.3769475
23	0xbf532fce	-0.8249482
24	0xbee97015	-0.45593324
25	0x3e5d3c66	0.21605071
26	0xbf711ae2	-0.94181645
27	0xbe193d1d	-0.14964719
28	0x3d496fdd	0.049178947
29	0xbd5f717d	-0.05455159
30	0x3c12c7d9	0.00895878
31	0xbf9ce540	-1.2257462

weight f4 [64, 32, 3, 3]
0	0xbe40e1b6	-0.18836102
1	0xbd72a3c3	-0.059238207
2	0x3b6eb085	0.0036421132
3	0xbd6c6c0e	-0.057720236
4	0xbe18b03f	-0.14910983
5	0x3c91796b	0.017758092
6	0x3e9e5a8d	0.3092846
7	0xbda68338	-0.08130497
8	0x3e8b12ec	0.27162874
9	0xbd0f8fdf	-0.035049316
10	0xbd4b4b0a	-0.04963211
11	0xbe688ecb	-0.22710721
12	0xbe92d896	-0.28680867
13	0xbd94afe6	-0.072601125
14	0xbe994f37	-0.2994325
15	0xbe641fe5	-0.22277792
16	0x3c789118	0.015171312
17	0x3de4dda1	0.11175085
18	0xbe2b54c4	-0.16731554
19	0xbdf07d29	-0.117426224
20	0x3d46e447	0.048557546
21	0x3dce589f	0.10075497
22	0x3dc83853	0.09776368
23	0x3dfae48b	0.12250622
24	0x3d8b8f9a	0.06814499
25	0xbe220f36	-0.15826115
26	0xbddd35f1	-0.10801304
27	0xbd0e4388	-0.03473237
28	0x3e5a30b2	0.21307638
29	0x3e8148b6	0.25250787
30	0x3ce4b413	0.027917897
31	0xbe0c2d8c	-0.1368925
32	0xbe4ac3f1	-0.19801308
33	0xba2673f7	-0.00063496776
34	0xbe02c512	-0.12770489
35	0x387633a0	5.869905e-05
36	0x3d51b16d	0.051194597
37	0xbc542ee6	-0.012950635
38	0x3e57ab6d	0.21061487
39	0xbb19c146	-0.0023461147
40	0xbdce35a8	-0.10068828
41	0xbd6ab91d	-0.057305444
42	0x3ac17dd9	0.0014762237
43	0x3e322751	0.1739781
44	0x3debc482	0.1151209
45	0xbdf34ea1	-0.11880232
46	0xbe0e19aa	-0.13876978
47	0xbe31565f	-0.17318104
48	0xbd5606db	-0.05225263
49	0x3d826180	0.06366253
50	0x3e2aa134	0.16663057
51	0x3e1a9fb4	0.15099984
52	0x3e1b60fc	0.15173715
53	0x3d8e644b	0.06952723
54	0xbc8bdac5	-0.01707209
55	0xbe5b07a8	-0.2138964
56	0x3e1c9040	0.15289402
57	0x3e2c323b	0.16816036
58	0x3dca2c06	0.09871678
59	0xbd7cfcb5	-0.061764438
60	0xbc418752	-0.011812048
61	0x3d192090	0.03738457
62	0x3e441cec	0.19151658
63	0xbdb9c7c9	-0.09071309
64	0xbdf8458e	-0.121226415
65	0xbdb1dc6e	-0.08684622
66	0x3dc13006	0.09432988
67	0x3e166874	0.14688283
68	0x3e953009	0.2913821
69	0xbd08dde5	-0.03341474
70	0xbe1aecc2	-0.15129378
71	0x3dafa648	0.085766375
72	0xbba766a5	-0.0051086717
73	0x3d2c8f93	0.04212911
74	0xbe08eff7	-0.1337279
75	0x3d42f78e	0.047599368
76	0xbd680167	-0.056641962
77	0xbe819f5b	-0.2531689
78	0x3e39d91c	0.18149227
79	0x3e2030c6	0.15643606
80	0xbdde069e	-0.10841106
81	0x3dcbe16b	0.099551044
82	0x3d2450c1	0.040116075
83	0xbd418902	-0.0472498
84	0x3c87740f	0.016534833
85	0x3d294225	0.041322846
86	0x3d2810cd	0.041031647
87	0x3da93816	0.08262651
88	0xbd6b714e	-0.057481103
89	0xbd88edea	-0.066860035
90	0xbca51369	-0.020150857
91	0xbb30ab00	-0.0026957393
92	0x3bef2e37	0.0072992104
93	0x3c655d76	0.013999334
94	0x3ce56d37	0.02800618
95	0x3e465332	0.19367674
96	0xbcbac8ab	-0.022800764
97	0xbc1e5971	-0.009664879
98	0x3b8de11b	0.004329813
99	0x3dd1c5af	0.10242783
100	0x3e3cfce2	0.18455842
101	0x3d968559	0.07349653
102	0x3dcf206a	0.10113604
103	0x3e633076	0.22186455
104	0x3e023174	0.12714177
105	0xbc160e8b	-0.009158741
106	0xbd9be769	-0.07612497
107	0xbd8c328e	-0.0684558
108	0x3d2b6210	0.041841567
109	0xbe15a7ea	-0.14614835
110	0x3e0c1b74	0.13682348
111	0xbe9a7800	-0.30169678
112	0xbcad182a	-0.021129686
113	0x3daa9484	0.08329108
114	0xbcaff49a	-0.02147894
115	0xbe16a9ce	-0.14713213
116	0xbd90a94d	-0.070635416
117	0x3cf24ca3	0.029577559
118	0xbd28c8b4	-0.04120703
119	0xbaef3853	-0.0018251039
120	0x3d854b58	0.06508511
121	0xbd912f86	-0.070891425
122	0xbe2b380d	-0.167206
123	0xbc145597	-0.009053609
124	0xbd51287e	-0.051064007
125	0xbddfba68	-0.10924226
126	0xbd6d42ca	-0.057925023
127	0xbd9ebabd	-0.07750461
128	0x3d439df0	0.047758043
129	0xbd8bc2b1	-0.06824244
130	0xbe44afe1	-0.19207717
131	0x3e616e74	0.22014791
132	0x3c5471c9	0.012966582
133	0xbddadf1d	-0.10687087
134	0x3d976c6d	0.073937275
135	0xbd316ba1	-0.043315534
136	0xbb998dda	-0.0046860995
137	0x3de9aa04	0.11409381
138	0xbdc5b877	-0.096543245
139	0xbe6735fb	-0.22579186
140	0x3ccf7d83	0.025328403
141	0x3dc40441	0.09571124
142	0x3d7f4a4a	0.062326707
143	0x3e77aa10	0.24185967
144	0xbe69121b	-0.22760813
145	0xbec39fb1	-0.38207772
146	0xbd1ca9e3	-0.038247954
147	0xbe0ca588	-0.1373502
148	0xbe412793	-0.18862753
149	0xbe52fdd1	-0.20604636
150	0x3d398b57	0.0452989
151	0x3e8f0ada	0.27937967
152	0xbddfefe3	-0.10934427
153	0x3db778e1	0.08958603
154	0xbe149a70	-0.14512038
155	0x3e8542ff	0.26027676
156	0xbe847776	-0.2587239
157	0x3b64daac	0.0034920378
158	0x3dd91cfb	0.10601231
159	0x3e98c79e	0.29839796
160	0xbd2b0212	-0.04175002
161	0xbdac5500	-0.0841465
162	0xbcf7a77b	-0.030231228
163	0xbdca191a	-0.09868069
164	0x3e90ee78	0.28306937
165	0xbe137113	-0.14398603
166	0x38853721	6.352203e-05
167	0x3d4f9596	0.050679766
168	0xbde797f6	-0.11308281
169	0x3d3248be	0.043526404
170	0xbd9fe5b3	-0.078074835
171	0x3e7dfbab	0.24803035
172	0x3d541547	0.051778104
173	0x3e890a45	0.26765648
174	0xbe642296	-0.22278818
175	0xbe0e50a6	-0.13897952
176	0x3c016adc	0.007899012
177	0x3c8a2253	0.01686207
178	0xbe61596e	-0.22006771
179	0x3d9bee03	0.076137565
180	0x3c01702e	0.007900281
181	0xbdb5326e	-0.08847509
182	0xbe0d30f0	-0.137882
183	0xbe7b0359	-0.24512996
184	0xbd9a368b	-0.075299345
185	0x3dbe9511	0.09305776
186	0xbde0e054	-0.10980287
187	0x3d66d436	0.056354724
188	0x3de90787	0.11378389
189	0x3dfcfd5c	0.12353012
190	0x3e486bda	0.19572392
191	0x3d90d8a3	0.0707257
192	0x3dba677c	0.09101769
193	0x3d99d9d5	0.07512251
194	0x3a3fa020	0.0007309932
195	0x3db71f3e	0.08941506
196	0x3bf9c127	0.0076219025
197	0xbe57bdbd	-0.21068473
198	0xbd758ead	-0.05995052
199	0xbe6751ec	-0.22589844
200	0x3c2eca7b	0.010668392
201	0x3d1895c0	0.037252188
202	0xbe177707	-0.14791499
203	0x3e31191d	0.17294736
204	0x3e05440c	0.13014239
205	0xbb6fd1e5	-0.0036593613
206	0xbde573bd	-0.11203716
207	0xbc8a2313	-0.016862428
208	0xbe34998c	-0.17636698
209	0x3db79a61	0.08964992
210	0xbcbfef8d	-0.023429656
211	0xbd93d372	-0.07218064
212	0x3cc7fa05	0.02441121
213	0x3e2678a0	0.16256952
214	0x3e62a7ad	0.22134276
215	0xbe4306de	-0.19045588
216	0xbe7b8422	-0.24562123
217	0xbd938ebe	-0.0720496
218	0x3dddb628	0.10825759
219	0xbcade64a	-0.021227974
220	0xbe26ee30	-0.16301799
221	0x3c4ddbf2	0.012564646
222	0xbcff2fac	-0.031150661
223	0xbe628388	-0.22120488
224	0xbe0dc3e1	-0.13844253
225	0x3e862826	0.26202506
226	0xbda6de3f	-0.08147859
227	0x3e8fa573	0.28055915
228	0xbe6dec35	-0.23234637
229	0xbd9c2af6	-0.07625382
230	0x3c9f28be	0.019428607
231	0x3e0072b3	0.12543754
232	0x3e06d27a	0.13166228
233	0xbe862d5c	-0.2620648
234	0x3d0c35b0	0.034230888
235	0x3e80d1d5	0.2516009
236	0x3c557d5b	0.013030375
237	0xbd94b62f	-0.07261311
238	0x3d25659f	0.040380117
239	0x3db81ad3	0.08989491
240	0xbe3ee298	-0.18641126
241	0x3cf44794	0.029819287
242	0xbe0c841c	-0.1372227
243	0x3d90a1e8	0.07062131
244	0xbe5b6f0d	-0.21429081
245	0xbcea059a	-0.028567124
246	0xbe8482cc	-0.2588104
247	0xbea966ac	-0.33086145
248	0xbe1972a5	-0.1498514
249	0x3ed2043d	0.4101886
250	0xbcd849e6	-0.026402425
251	0xbe29f815	-0.16598542
252	0x3db48c81	0.088158615
253	0xbdbeb1a3	-0.09311225
254	0xbdefcb71	-0.11708725
255	0xbe749b55	-0.2388738

bias f4 [64]
0	0x3f2e448e	0.68073356
1	0xbddeff4f	-0.1088854
2	0xbec54f95	-0.3853728
3	0xbe2d69fd	-0.16934963
4	0xbe559cf9	-0.20860662
5	0x3eae2918	0.34015727
6	0x3daf1b5f	0.085501425
7	0x3d787ed3	0.060667824
8	0x3d2d4c16	0.04230889
9	0x3cb8807d	0.022522205
10	0x3e3cf2a2	0.18451932
11	0x3e4de50f	0.2010691
12	0xbe7e6fcc	-0.24847335
13	0x3e03c00c	0.12866229
14	0xbec47227	-0.3836834
15	0xbeab770e	-0.3348927
16	0xbd304717	-0.043036547
17	0x3e3e2b03	0.18571095
18	0xbe60ca49	-0.21952166
19	0xbea09aaf	-0.31368014
20	0xbcf0e09a	-0.029403973
21	0xbda5aff9	-0.08090205
22	0xbe3e4727	-0.1858183
23	0xbe54bf4b	-0.20776097
24	0xbe5dfcc2	-0.2167845
25	0x3ecc5321	0.39907172
26	0x3d5c5a2d	0.053796936
27	0xbdf69195	-0.12039486
28	0x3e2e390b	0.17013948
29	0xbe1fe3df	-0.1561427
30	0xbd30ef0d	-0.043196727
31	0xbde29fd5	-0.11065642
32	0x3f1cf9f5	0.61318904
33	0xbec6111b	-0.38684925
34	0xbd4d0536	-0.050053798
35	0x3ec6bb42	0.3881474
36	0x3ed22cab	0.41049704
37	0xbea2ac92	-0.31772286
38	0x3e9f5945	0.31122795
39	0x3ea2865e	0.3174314
40	0x3f0c97b5	0.54918987
41	0x3e54225a	0.20716229
42	0xbef47060	-0.47741985
43	0x3d2a998b	0.041650336
44	0xbe184979	-0.14871778
45	0xbed92ffa	-0.42419416
46	0xbe564229	-0.20923676
47	0xbf10fcab	-0.5663554
48	0x3c81aa94	0.015828408
49	0xbe7dc27f	-0.24781226
50	0xbdb6f6f3	-0.089338206
51	0xbf209bbd	-0.6273764
52	0xbe98b599	-0.29826048
53	0x3e856d7d	0.26060095
54	0xbcd83c6e	-0.026396003
55	0x3e190547	0.1494342
56	0xbea97d84	-0.33103573
57	0xbe76dcb5	-0.2410763
58	0xbe41c81c	-0.18923992
59	0x3f185049	0.59497505
60	0xbd75a48c	-0.059971377
61	0xbe573371	-0.21015717
62	0xbd9b940a	-0.075965956
63	0xbf1630ec	-0.586684

weight f4 [128, 64, 3, 3]
0	0xbb52070e	-0.0032047662
1	0x3de26d5c	0.11056015
2	0x3d3f1406	0.046649955
3	0x3dd50dc7	0.104030184
4	0x3d56faed	0.052485395
5	0xbdbca58a	-0.092112616
6	0x3c852219	0.01625161
7	0x3da6d6d6	0.081464455
8	0xbb914d1d	-0.0044342414
9	0x3d3bae35	0.045820434
10	0xbd9e391a	-0.07725735
11	0xbdda599a	-0.106616214
12	0x3e82b05b	0.25525174
13	0xbdb1a594	-0.0867416
14	0xbc6f2049	-0.0145951
15	0x3ba57510	0.0050493553
16	0xbe0c7612	-0.13716915
17	0x3cfb8936	0.030705076
18	0xbdc74471	-0.09729851
19	0xbe06acfe	-0.13151929
20	0xbd8ab165	-0.067721166
21	0xbe4b0bce	-0.19828722
22	0x3cad5dd5	0.021162907
23	0xbceb2789	-0.028705375
24	0x3d63bf65	0.05560245
25	0xbe066d63	-0.13127665
26	0xbdcd75f5	-0.10032264
27	0x3df6afef	0.120452754
28	0xbdaac8c1	-0.08339072
29	0x3d1fccbe	0.039013617
30	0x3e0fbcab	0.14036815
31	0x3cf9dcb3	0.030500745
32	0x3c8cd264	0.017190166
33	0xbda5ed15	-0.081018604
34	0xb84c9532	-4.877634e-05
35	0xbcb9cf91	-0.022681983
36	0xbc58b13d	-0.013225851
37	0xbc80250e	-0.015642669
38	0xbd1b9559	-0.037984226
39	0xbc75c931	-0.015001581
40	0xbc72a16d	-0.014808995
41	0x3e28ca74	0.1648348
42	0xbbf3700c	-0.0074291285
43	0xbe0cd95a	-0.13754788
44	0xbe083123	-0.13299994
45	0xbde38115	-0.11108605
46	0x3bf9de19	0.007625353
47	0x3c6dc16d	0.014511448
48	0x3d84a299	0.064763255
49	0x3d60f816	0.054924093
50	0xbd765ce1	-0.06014717
51	0xbc60a975	-0.013712277
52	0x3cc6d66b	0.024272164
53	0xbd6ccd14	-0.057812765
54	0xbd503b1b	-0.050837617
55	0xbdc5c5c8	-0.096568644
56	0xbb90e96c	-0.0044223573
57	0xbdd0aba4	-0.10188988
58	0xbd8bbd8e	-0.06823264
59	0xbcac64b0	-0.021044105
60	0x3dc7550b	0.097330175
61	0xbd89b1b1	-0.06723345
62	0xbdbc8c0d	-0.092064
63	0x3da2d0b0	0.0794996
64	0x3e5f29e6	0.21793327
65	0xbd281cfd	-0.04104327
66	0x3cfc9233	0.030831432
67	0xbddd5fa9	-0.10809261
68	0xbdb78b11	-0.08962072
69	0xbd30f3a6	-0.04320111
70	0xbd3d7a33	-0.046259116
71	0xbd4e5eb5	-0.05038329
72	0x3e13dc57	0.14439522
73	0x3e27a6a8	0.16372168
74	0x3d777861	0.060417537
75	0x3ddfa9fe	0.10921095
76	0xbdccca89	-0.09999568
77	0x3d210a07	0.039316203
78	0xbdf1d24c	-0.11807689
79	0x3dde2567	0.10846978
80	0x3d739a31	0.05947322
81	0x3d43b831	0.04778308
82	0x3d7c3e6e	0.061582975
83	0xbc996f36	-0.018729787
84	0x3dc0df09	0.094175406
85	0xbd03f9b5	-0.03222056
86	0xbd2f4445	-0.042789716
87	0xbdbd9249	-0.09256417
88	0x3d105081	0.035233025
89	0x3c02be7d	0.007979986
90	0xbc98db02	-0.018659119
91	0x3dc51d94	0.09624782
92	0xbc60316d	-0.013683659
93	0xbd5c3828	-0.053764492
94	0xbc008429	-0.007844009
95	0xbd87d84b	-0.066330515
96	0x3d50310f	0.050828036
97	0xbd1d9100	-0.03846836
98	0xbc14ca61	-0.009081454
99	0x3c5c0cb3	0.013430762
100	0xbd5a8994	-0.05335386
101	0xbcb84b2e	-0.022496786
102	0x3d9bed46	0.07613616
103	0x3b90d6f0	0.004420154
104	0xbdafebbb	-0.08589884
105	0xbd39bc9e	-0.045345895
106	0xbc98a1ab	-0.018631777
107	0xbb564c53	-0.0032699301
108	0xbdafe17f	-0.08587932
109	0xbd2c8c7c	-0.042126164
110	0xbb839dfb	-0.0040166355
111	0xbce8c4d2	-0.028414164
112	0xbe244b2b	-0.160443
113	0xbcf81649	-0.030284064
114	0x3e34af7c	0.17645067
115	0xbc600fcd	-0.013675642
116	0x3d8b7a6b	0.06810459
117	0xbd99beb7	-0.07507079
118	0x3ca72253	0.02040211
119	0xbd11ffd8	-0.035644382
120	0xbe43fb88	-0.1913892
121	0xbdb6007d	-0.08886812
122	0x3e30184a	0.17196766
123	0x3d7e59bb	0.062097292
124	0xbd12db6b	-0.035853785
125	0x3d20ae25	0.039228577
126	0xbd839afb	-0.064260446
127	0xbdd84dcf	-0.10561716
128	0xbd3ca38d	-0.04605441
129	0x3d4cb61a	0.049978353
130	0x3dee0c92	0.11623491
131	0x3b42a35a	0.0029699416
132	0xbdb176bf	-0.08665227
133	0xbc04fba6	-0.008116638
134	0x3d708c9e	0.058727853
135	0x3d0c68f4	0.03427978
136	0xbda19889	-0.07890422
137	0xbddd13b4	-0.10794774
138	0x3cf83b3d	0.030301685
139	0xbd906d19	-0.07052059
140	0x3ba0fe55	0.0049131312
141	0x3d34ebf9	0.044170354
142	0xbdc5bf39	-0.096556135
143	0xbc44e408	-0.0120172575
144	0xbda504f9	-0.08057589
145	0xbdac119b	-0.084017955
146	0xbc58b6c6	-0.01322717
147	0xbdaed1d0	-0.08536112
148	0x3c996a46	0.018727433
149	0xbda01652	-0.07816757
150	0xb8afbdbe	-8.3799925e-05
151	0x3dd1f61f	0.10252022
152	0x3c88bd91	0.016691955
153	0x3df540db	0.11975261
154	0x3e04c933	0.12967376
155	0xbd601e21	-0.054716233
156	0xbd40c812	-0.047065802
157	0xbda151fd	-0.07876966
158	0x3d77ab03	0.060465824
159	0xbd9e7d33	-0.077387236
160	0xbdc4b603	-0.096050285
161	0xbddbf380	-0.10739803
162	0xbc243998	-0.010023497
163	0xbc670fdb	-0.014102901
164	0xbb88dcc8	-0.00417671
165	0x3c22b6e8	0.009931304
166	0xbd88b135	-0.066744246
167	0xbe1c44e1	-0.1526065
168	0x3d45b543	0.048268568
169	0x3db19502	0.08670999
170	0x3e0b705c	0.1361708
171	0xbbfd7307	-0.0077346596
172	0x3dc08885	0.09401039
173	0xbd86f3d3	-0.065894745
174	0x3d6571ac	0.05601661
175	0x3d9e1ff1	0.07720936
176	0xbcce5beb	-0.025190314
177	0x3e2187c1	0.15774442
178	0xbdaf4b23	-0.08559253
179	0xbd9382ec	-0.07202706
180	0xbda84dde	-0.08217977
181	0x3d50b10e	0.050950103
182	0xbda2168f	-0.07914459
183	0x3e1add39	0.15123452
184	0xbda4dae9	-0.08049566
185	0x3d141085	0.036148567
186	0x3d32c23c	0.043642268
187	0xbde3ccea	-0.11123069
188	0xbda321b2	-0.07965411
189	0x3ce260b7	0.027634008
190	0x3cc6e473	0.024278855
191	0xbcccae78	-0.024985537
192	0xbc3e1dcf	-0.011603787
193	0x3e0affeb	0.13574187
194	0xbd3c4056	-0.045959793
195	0xbd424bcd	-0.04743557
196	0xbe29f961	-0.16599037
197	0x3d381943	0.044945966
198	0x3d1f6cca	0.03892211
199	0x3da539ff	0.080677025
200	0xbb80aeef	-0.0039271037
201	0xbc041749	-0.008062192
202	0x3da74657	0.08167713
203	0xbc9d6967	-0.019215299
204	0xbd4104de	-0.047123782
205	0x3d074a95	0.03303011
206	0x3cd14278	0.02554439
207	0xbd43e019	-0.047821138
208	0xbdc5280d	-0.0962678
209	0xbd8f41ea	-0.06994994
210	0xbd8a796d	-0.067614414
211	0xbdc9c4b2	-0.0985197
212	0x3d968b27	0.0735076
213	0xbd3cd828	-0.04610458
214	0xbe48a2d1	-0.1959336
215	0x3d2250cb	0.03962783
216	0xbd99221a	-0.074772075
217	0xbd80f281	-0.06296254
218	0x3da4c7b2	0.08045901
219	0x3dc3cfac	0.09561095
220	0x3d6786a6	0.056524895
221	0x3e235089	0.1594869
222	0x3d143c8e	0.036190562
223	0x3ddc1dc7	0.10747867
224	0xbda5055b	-0.08057662
225	0xbd160424	-0.036625043
226	0x3dd4cecb	0.10391005
227	0xbd25cc1b	-0.040477853
228	0x3da20494	0.079110295
229	0x3d606145	0.054780263
230	0xbd458990	-0.048226893
231	0xbc93029c	-0.01794558
232	0x3cf00fcc	0.029304408
233	0xbdde37eb	-0.10850509
234	0x3e0e058d	0.13869305
235	0x3dd59450	0.10428679
236	0xbb58c99e	-0.0033079158
237	0xbe1b89a9	-0.15189232
238	0x3912e569	0.00014009107
239	0xbd354a72	-0.04426045
240	0xbd6b3bbe	-0.05743002
241	0xbda1fd96	-0.07909696
242	0xbd91ed28	-0.07125312
243	0xbd78c266	-0.060732268
244	0x3d46de06	0.04855158
245	0x3d7ffd03	0.06249715
246	0x3db1bb72	0.086783305
247	0x3d8512b0	0.06497705
248	0xbd8e9ebd	-0.06963871
249	0x3e0834f6	0.13301453
250	0x3e19867e	0.14992711
251	0xbc80c8ff	-0.015720842
252	0x3e29e072	0.16589525
253	0xbdcde3d9	-0.10053224
254	0xbdb0ff5f	-0.08642458
255	0x3ce6ee54	0.028189816

bias f4 [128]
0	0x3d47bacd	0.04876213
1	0x3e3be005	0.18347175
2	0xbe0f72b6	-0.14008602
3	0xbd458d3e	-0.048230402
4	0xbe560d41	-0.20903493
5	0xbd61ebe6	-0.05515661
6	0xbe8f3dbd	-0.2797679
7	0xbe21547b	-0.15754883
8	0x3e09b20e	0.13446829
9	0x3e22b949	0.15890993
10	0xbe258dca	-0.1616737
11	0xbc9936d8	-0.01870291
12	0xbe545461	-0.20735313
13	0xbe019d3e	-0.1265764
14	0x3e51d3c2	0.20490935
15	0xbd97c575	-0.07410709
16	0xbe0e0cc2	-0.13872054
17	0x3e80f080	0.25183487
18	0xbe5ea291	-0.21741702
19	0x3d899d72	0.067194834
20	0xbddd3f83	-0.108031295
21	0x3dbc53bf	0.09195661
22	0xbd0ea7cb	-0.03482799
23	0x3de023fb	0.10944363
24	0x3d9c8c15	0.07643906
25	0xbe3f88a2	-0.18704465
26	0xbda2fab7	-0.07957976
27	0x3e42c9a9	0.1902224
28	0xbd261605	-0.040548343
29	0x3a6f7d77	0.0009135822
30	0xbeaffa1d	-0.3437051
31	0x3d6dd33a	0.05806277
32	0xbdc8ec7f	-0.09810733
33	0x3ea68eb5	0.32530752
34	0x3d2f26ce	0.042761616
35	0x3e860869	0.2617829
36	0x3e805937	0.25068066
37	0xbcffab2d	-0.031209553
38	0xbd9e5578	-0.077311456
39	0xbdc19901	-0.09453011
40	0x3d6a767b	0.057241898
41	0xbd999d06	-0.07500653
42	0xbd813614	-0.06309143
43	0x3e179a27	0.14804898
44	0xbcd643da	-0.026155401
45	0xbe8a9f27	-0.2707455
46	0x3e99b431	0.30020288
47	0xbe24031d	-0.16016813
48	0x3e29f20a	0.16596237
49	0xbcebfefa	-0.028808106
50	0xbe1aa3f5	-0.15101607
51	0xbe12942a	-0.14314333
52	0x3c31bc97	0.010848186
53	0x3db709fd	0.08937452
54	0xbe06bad3	-0.13157205
55	0x3e981146	0.2970068
56	0x3dc807cd	0.09767113
57	0xbe74293d	-0.23843856
58	0x3cf3b4f2	0.029749367
59	0xbd9a60a1	-0.07537962
60	0xbe2e08b6	-0.1699551
61	0x39d58c09	0.0004073086
62	0xbe47dd82	-0.19518092
63	0xbd9b18fe	-0.07573126
64	0xbe1b8f4c	-0.15191382
65	0xbdfd34fa	-0.1236362
66	0xbc7c79a8	-0.0154098645
67	0x3ed2afcd	0.4114975
68	0xbe796523	-0.24354987
69	0xbdddc5fb	-0.108287774
70	0xbd72306b	-0.059128206
71	0xbe58db79	-0.21177472
72	0xbea968db	-0.3308781
73	0x3d5a88f4	0.053353265
74	0x3d11b32d	0.035571266
75	0xbea6d79e	-0.32586378
76	0xbe10a807	-0.14126597
77	0xbdbbfc6c	-0.09179005
78	0x3e401a31	0.18759991
79	0x3e083ad4	0.13303691
80	0xbd7a253f	-0.061070677
81	0xbe53c07c	-0.20678896
82	0x3e429c13	0.1900485
83	0x3c297414	0.010342617
84	0xbe337494	-0.1752494
85	0xbd43d06e	-0.047806196
86	0xbda93414	-0.08261886
87	0xbdaabc8d	-0.083367445
88	0xbbd2b817	-0.0064306366
89	0x3e09d339	0.13459481
90	0xbdd990fb	-0.10623356
91	0x3e4f7858	0.20260751
92	0x3cee8c9c	0.029119782
93	0xbd1a1849	-0.037620816
94	0x3c87cd53	0.016577398
95	0x3e972055	0.29516855
96	0x3cab3380	0.02089858
97	0x3c7c6f0f	0.015407338
98	0x3e47f6d3	0.1952775
99	0x3d939f22	0.072080866
100	0xbe0e53fd	-0.13899226
101	0xbe565e2c	-0.20934361
102	0xbdcd03df	-0.10010504
103	0x3bec0ffb	0.0072040535
104	0x3c5a081d	0.013307598
105	0x3e677e74	0.22606832
106	0x3e98ae86	0.2982065
107	0xbe240bc0	-0.16020107
108	0xbc9b522c	-0.018960081
109	0x3e10d80f	0.1414492
110	0xbc214f78	-0.009845607
111	0x3d97c10a	0.07409866
112	0x3d69e5d5	0.05710395
113	0x3e0bce3b	0.1365289
114	0x3dd4e709	0.10395629
115	0x3e515df4	0.20445997
116	0x3c41e78c	0.01183499
117	0x3d87b2c8	0.06625897
118	0x3e4504d1	0.19240119
119	0xbde63626	-0.11240797
120	0xbd32efa0	-0.043685555
121	0xbddc3a4b	-0.10753306
122	0xbd326f96	-0.043563448
123	0x3e8a0d7e	0.2696342
124	0x3cb5725b	0.022149255
125	0x3db72e44	0.08944371
126	0xbe17e5f4	-0.14833814
127	0xbd7f3787	-0.062308814

weight f4 [120, 128]
0	0x3d81df5e	0.06341432
1	0x3d63d31e	0.05562126
2	0x3d9465b7	0.07245963
3	0xbe019a26	-0.12656459
4	0x3e4a670c	0.19765872
5	0x3d9e6168	0.077334225
6	0xbdbdc53a	-0.092661336
7	0xbd8f0f14	-0.06985298
8	0xbd6221d4	-0.055208042
9	0xbc67fd46	-0.014159506
10	0xbdfe51b7	-0.124179296
11	0x3d881ada	0.066457465
12	0xbdbc0c67	-0.09182053
13	0xbdafe6b9	-0.08588929
14	0xbde9b278	-0.11410993
15	0x3da19693	0.07890048
16	0xbe4f2152	-0.20227554
17	0x3c38f24a	0.011288235
18	0xbde18f49	-0.110136576
19	0xbd1d5aad	-0.038416553
20	0x3d31e514	0.043431357
21	0xbd4b0ca1	-0.04957259
22	0xbdd6087d	-0.10450838
23	0x3d29097a	0.041268803
24	0xbd8b70b8	-0.06808609
25	0xbde88193	-0.11352839
26	0x3c0f10dd	0.008732048
27	0xbdaacf7b	-0.08340355
28	0xbd106a20	-0.03525746
29	0xbde4ec8f	-0.111779325
30	0xbc6d64d8	-0.014489375
31	0x3e210d95	0.15727837
32	0x3d997d22	0.0749457
33	0xbcd55a41	-0.026044013
34	0x3e020b49	0.12699617
35	0xbe19d304	-0.15021902
36	0x3d8b1165	0.06790427
37	0xbbada5c2	-0.005299301
38	0x3d7daca4	0.06193222
39	0xbca126bf	-0.019671796
40	0xb976a93c	-0.00023523433
41	0xbcf1b010	-0.029502898
42	0x3d6c6fdd	0.05772387
43	0xbcbdd2fc	-0.023171894
44	0xbc2ff287	-0.010738975
45	0x3cd3bed7	0.025847835
46	0xbd81adbd	-0.06331966
47	0xbdd67467	-0.10471421
48	0xbdee3d68	-0.11632806
49	0x3d697e68	0.057005316
50	0x3cbd0758	0.02307479
51	0xbe09b1f7	-0.13446794
52	0x3dc2144b	0.09476527
53	0xbd27cd20	-0.040967107
54	0x3d82f215	0.0639383
55	0x3b6b72ea	0.0035926648
56	0x3e249b28	0.16074812
57	0xbca542fe	-0.020173546
58	0x3e51aa7e	0.20475194
59	0xbd438062	-0.047729857
60	0xbe15ee0a	-0.14641586
61	0x3d39cd1e	0.04536163
62	0x3d305db4	0.043058112
63	0xbe05e9b8	-0.13077438
64	0x3d9112ad	0.0708364
65	0xbc2d4602	-0.010575773
66	0x3cce3566	0.025171947
67	0x3dbc942c	0.09207949
68	0x3d7094ce	0.05873566
69	0xbdc71d2d	-0.09722362
70	0x3e22aea5	0.15886934
71	0xbc96aa87	-0.01839186
72	0xbd7f8f0d	-0.062392283
73	0x3ce4b6c2	0.027919177
74	0xbdc6f9f0	-0.097156405
75	0xbd47921a	-0.048723318
76	0xbdae504e	-0.08511411
77	0xbdadc510	-0.08484852
78	0x3cad191a	0.021130133
79	0xbc37d970	-0.011221275
80	0xbdbc6f87	-0.0920096
81	0x3db9f465	0.09079818
82	0x3c27a8fb	0.010233159
83	0x3d5aebfa	0.0534477
84	0x3cb8eeb6	0.022574764
85	0x3d7c56fc	0.061606392
86	0xbcf3af83	-0.029746776
87	0xbcaee214	-0.021348037
88	0xbd93c5dc	-0.07215473
89	0xbe1d29b5	-0.15347941
90	0xbdeaec59	-0.11470861
91	0xbc16ea46	-0.009211129
92	0x3b2a2b98	0.0025965925
93	0xbdbbf03e	-0.09176682
94	0xbdc08459	-0.09400243
95	0x3de9fb07	0.11424833
96	0xbdfc11d7	-0.1230809
97	0x3e2c65d8	0.16835725
98	0xbd65ef60	-0.05613649
99	0x3d3dba09	0.046319995
100	0x3d682ebf	0.056685206
101	0xbdd9511b	-0.10611173
102	0x3d2927ca	0.04129771
103	0x3b750a50	0.003739018
104	0xbe27c5f5	-0.16384108
105	0xbd3e5144	-0.04646422
106	0xbded05f6	-0.115734026
107	0xbc4c2974	-0.012461055
108	0xbcc48a36	-0.023991685
109	0x3d24d0db	0.040238243
110	0xbd34404d	-0.044006635
111	0x3d3c9996	0.04604491
112	0xbd0dbd6b	-0.03460447
113	0xbc440f8a	-0.011966595
114	0xbc193274	-0.009350408
115	0x3cb41a98	0.021985337
116	0x3c9a98d8	0.01887171
117	0xbdefac27	-0.11702757
118	0x3ca45d0c	0.0200639
119	0xbdb2e628	-0.08735305
120	0xbd9117aa	-0.07084592
121	0x3d049e56	0.032377563
122	0x3d8d2692	0.06892122
123	0xbc93760b	-0.018000623
124	0xbcf5c39e	-0.030000504
125	0xbdd27d39	-0.102777906
126	0xbcd3cd57	-0.02585475
127	0x3d78ef08	0.060774833
128	0xbd553c84	-0.052059665
129	0xbd0dc2d3	-0.034609627
130	0xbdbb190d	-0.091356374
131	0x3c5b28eb	0.013376455
132	0x3d7fe98b	0.062478583
133	0xbdadfd35	-0.08495561
134	0xbe0dd29d	-0.13849874
135	0xbc74d8a4	-0.014944229
136	0xbdafcd9c	-0.08584139
137	0xbd07f480	-0.033192158
138	0x3bc9f012	0.006162652
139	0x3d27f2b9	0.041002963
140	0x3cb38479	0.021913754
141	0x3dd59751	0.10429252
142	0xbd81f10d	-0.06344805
143	0xbdc39cca	-0.095513895
144	0xbe2937bd	-0.16525169
145	0x3c359f56	0.011085352
146	0xbcb60069	-0.022216992
147	0xbe0b6e57	-0.1361631
148	0x3ddf0b54	0.108908325
149	0x3c953a27	0.018216206
150	0xbd69be71	-0.057066385
151	0x3d02e9a9	0.031961117
152	0x3c596ac5	0.013270085
153	0x3dad982a	0.084762886
154	0x3dd90792	0.10597147
155	0xbd49e383	-0.049289238
156	0x3d131651	0.035909954
157	0xbbaa4581	-0.005196274
158	0x3d989b7a	0.0745153
159	0x3e1422b3	0.14466362
160	0xbd24e9f5	-0.04026218
161	0xbe2ec17d	-0.17065997
162	0x3d156c88	0.036480457
163	0x3b61e3d8	0.003446808
164	0xbd50b17b	-0.05095051
165	0x3e2ca6a8	0.1686045
166	0x3d2d6699	0.042334173
167	0x3d3e8f0c	0.04652314
168	0xbd1bb274	-0.038011983
169	0xbdd9426f	-0.10608374
170	0xbc36d8f0	-0.01116012
171	0xbd62378c	-0.055228755
172	0x3e0982fe	0.13428876
173	0x3d8ea796	0.06965558
174	0xbda4831f	-0.08032822
175	0xbe053acc	-0.1301071
176	0xbdbfaa41	-0.09358645
177	0x3d1fb894	0.038994387
178	0x3cf0c22b	0.029389462
179	0xbcde79f2	-0.027157757
180	0x3b26a5e1	0.0025428461
181	0xbc7d7d39	-0.01547175
182	0x3dbb6df6	0.09151833
183	0x3c87057f	0.016482113
184	0x3d1099b5	0.035302836
185	0x3ce5cb86	0.02805115
186	0x3e03f2c9	0.12885584
187	0xbda9272b	-0.08259424
188	0xbe559452	-0.20857361
189	0x3a28c287	0.0006437678
190	0x3a49761a	0.000768514
191	0x3cf1c4bf	0.029512761
192	0x3e206a6c	0.15665597
193	0xbd0c3716	-0.03423222
194	0x3dbf73d5	0.09348265
195	0xbcbc8dbc	-0.023016803
196	0xbd533660	-0.051565528
197	0x3d2af447	0.041736867
198	0xbe53a398	-0.20667875
199	0xbde0cc89	-0.10976512
200	0xbd06327a	-0.032762982
201	0xbe07a53a	-0.13246623
202	0xbcb9eba5	-0.022695372
203	0xbd45d0dc	-0.048294887
204	0x3c4a9f49	0.012367078
205	0x3bc06f44	0.005872639
206	0xbe2c9fee	-0.16857883
207	0xbdb845f8	-0.089977205
208	0x3d252483	0.040318023
209	0xbd25883b	-0.040413123
210	0x3d998f00	0.07497978
211	0xbda2bde8	-0.07946378
212	0x3d97bb1b	0.074087344
213	0x3c4932d3	0.012280184
214	0xbcc49916	-0.023998778
215	0xbd9e7fa2	-0.07739188
216	0xbd6035fc	-0.054738984
217	0xbcde7851	-0.02715698
218	0xbbf5d33e	-0.0075019887
219	0x3e5645bb	0.20925038
220	0x3bfe8eb9	0.0077684787
221	0x3d6b3cf0	0.05743116
222	0xbc3bf72b	-0.011472504
223	0xbd11402e	-0.035461597
224	0xbd609c87	-0.054836776
225	0x3de7265c	0.11286613
226	0xbdb56e2f	-0.088589065
227	0x3c2923a2	0.010323437
228	0x3d8666cf	0.06562578
229	0xbca67c03	-0.020322805
230	0xbdb50689	-0.08839137
231	0x3d89e81e	0.06733726
232	0xbca3a624	-0.019976683
233	0x3da4aadb	0.080404006
234	0xbd3f1667	-0.046652224
235	0xbd0c6dc9	-0.034284387
236	0x3df345f0	0.11878574
237	0xbe20ace4	-0.15690953
238	0x3c9321fa	0.017960537
239	0xbd03cfe5	-0.032180686
240	0xbd93a8e9	-0.072099514
241	0xbdee0a0e	-0.116230115
242	0xbdb60e8c	-0.08889493
243	0x3de84b97	0.113425426
244	0x3ccb81e0	0.024842203
245	0xbe18d21b	-0.14923899
246	0x3d3dbf3b	0.04632495
247	0x3d1f7cae	0.038937263
248	0xbd7b67e4	-0.061378375
249	0x3e741166	0.23834762
250	0x3daececf	0.08535539
251	0xbd2be1b1	-0.041963283
252	0x3d18e3da	0.03732667
253	0xbca5877d	-0.020206207
254	0x3dc2055d	0.09473679
255	0xbdbb3ed7	-0.09142845

bias f4 [120]
0	0x3dff6e4f	0.124722116
1	0xbd7c1459	-0.061542843
2	0xbe077710	-0.13229012
3	0x3ceafa62	0.028683845
4	0xbdf33e25	-0.118770875
5	0x3da6b4bb	0.0813994
6	0x3e939ad6	0.28829068
7	0xbe46682a	-0.19375673
8	0x3e0e33fd	0.1388702
9	0x3e8be63e	0.27324098
10	0xbda20847	-0.07911735
11	0xbd9972df	-0.07492613
12	0xbe01a2c3	-0.12659745
13	0x3c6c87f5	0.014436712
14	0x3a2675fb	0.0006349978
15	0x3e0b9f6c	0.13635033
16	0x3ebd8a60	0.37019634
17	0xbcb9052a	-0.02258547
18	0xbe38c44a	-0.18043628
19	0xbda29f87	-0.07940584
20	0xbb4bcfeb	-0.003109927
21	0x3cd53300	0.026025295
22	0x3c07cab9	0.008288079
23	0x3ebbdb5a	0.3669079
24	0xbda933fa	-0.08261867
25	0xbd42e667	-0.04758301
26	0xbdf3525e	-0.11880945
27	0xbde3b184	-0.11117843
28	0xbdba36e3	-0.090925
29	0x3eb065b6	0.344526
30	0x3e2b7de6	0.16747245
31	0x3ef5ad14	0.4798361
32	0x3d26471c	0.04059516
33	0x3f4d91c0	0.8030052
34	0xbc2fc9b4	-0.010729242
35	0x3dd55283	0.104161285
36	0x3dd696fb	0.10478016
37	0xbd4876b4	-0.04894133
38	0x3ccf7368	0.025323585
39	0x3f085424	0.5325339
40	0xbd826299	-0.06366462
41	0x3f9078e6	1.1286895
42	0xbe4d0b05	-0.20023735
43	0xbd9b6e9b	-0.07589456
44	0x3d3df08b	0.046371978
45	0x3d28f45f	0.041248675
46	0x3d885795	0.0665733
47	0x3e984020	0.29736423
48	0x3d1e3a04	0.038629547
49	0x3efce1ed	0.49391118
50	0xbd5977f7	-0.053092923
51	0x3f0ee1db	0.5581338
52	0xbdfccc01	-0.12343598
53	0xbde64615	-0.11243836
54	0x3de9a157	0.11407726
55	0x3bf98a21	0.007615343
56	0xbd0da12e	-0.03457754
57	0x3e5d43fc	0.21607965
58	0x3d354f33	0.044264983
59	0x3ca31a93	0.019910133
60	0xbdb21c1c	-0.08696768
61	0xbe10ab32	-0.14127806
62	0x3d1b8328	0.037966877
63	0x3db7f863	0.08982923
64	0x3d525df4	0.051359132
65	0xbccbfbfa	-0.024900425
66	0xbda130c5	-0.0787063
67	0x3e20136b	0.15632407
68	0xbde17eb5	-0.110104956
69	0xbd81b7ee	-0.0633391
70	0xbc154da8	-0.009112753
71	0x3ea90394	0.33010542
72	0x3e3b22c6	0.18274984
73	0x3e369a38	0.17832267
74	0x3d5509ef	0.052011427
75	0xbe92dc4a	-0.28683692
76	0x3e96fac9	0.2948821
77	0x3ed413f7	0.41421482
78	0xbdd5f654	-0.10447374
79	0x3cf90262	0.030396644
80	0x3d3eb083	0.046555053
81	0x3dad01a9	0.08447582
82	0x3ea88a62	0.32918078
83	0xbcfd11f1	-0.030892344
84	0x3dcc8896	0.09986989
85	0x3e9cfffa	0.30664045
86	0xbd8f6de7	-0.07003384
87	0xbd824f66	-0.063628
88	0xbe349967	-0.17636643
89	0xbde6cd62	-0.112696424
90	0x3d0e0acb	0.03467826
91	0x3d82a54a	0.06379183
92	0xbcd63d43	-0.026152259
93	0xbe794aa4	-0.2434488
94	0x3e9ba75b	0.3040112
95	0xbc3ba946	-0.011453932
96	0xbd256007	-0.040374782
97	0x3e44316a	0.19159475
98	0xbdbcc84c	-0.09217891
99	0x3e1ca764	0.1529823
100	0xbcd42937	-0.025898559
101	0xbd21c038	-0.039489955
102	0x3d15afa9	0.036544476
103	0x3e771912	0.24130657
104	0x3dacb62f	0.08433186
105	0x3f29a52d	0.66267663
106	0xbd157584	-0.036489025
107	0xbd8cf07b	-0.068818055
108	0xbd7e6b79	-0.062114213
109	0x3ddf0704	0.1089001
110	0x3ebcfd5a	0.36912042
111	0x3d2ca3a9	0.042148266
112	0x3e32919d	0.1743836
113	0x3f1221a9	0.5708261
114	0xbda294a2	-0.07938506
115	0xbd90ec9a	-0.07076378
116	0xbd853fe1	-0.065063246
117	0xbd2b5dd3	-0.041837525
118	0xbbb593f0	-0.005541317
119	0xbd23c8e2	-0.0399865
