pth/model.pth (torch, 507509 bytes, 16 tensors)

weight f4 [6, 3, 3, 3]
-0.102856584 0.019728418 -0.0298068 0.114758454 -0.06292204 -0.18415225 0.11693851 0.13127437
-0.121784076 0.06807049 -0.089957036 -0.061761316 0.06771707 -0.11639831 -0.035887532 -0.19221434
0.051601995 -0.05163641 -0.20654254 0.21212503 0.060433697 -0.21879214 0.051032394 0.18248674
-0.07753309 0.09048536 -0.036115568 1.9508353 2.822574 1.6368004 -0.045885254 0.23591377
0.8765626 -0.75901383 -1.2625077 -0.63898253 -0.48034 0.5114694 -0.3520707 -1.6673731
-1.6915764 -0.82879525 -0.6665192 -1.6209611 -0.737912 0.33923665 0.5006463 -0.28780696
-0.33280048 -0.45793536 -0.01430012 0.3731589 -0.26040432 0.5557876 -0.56672704 -0.34528148
-1.485809 -1.9640666 -2.8888044 -1.6848089 1.827811 2.2965002 1.4813612 1.1366551
1.1264243 0.23007244 -0.8906097 -1.6438197 -0.55811644 1.9505979 2.638101 1.5343285
0.49444577 0.23253118 0.104303144 -1.7277381 -2.7282965 -1.228899 0.6011779 1.0591339
-0.021564791 0.50107604 -0.59323233 0.391514 1.359873 0.014421826 -1.4189415 0.9889906
0.08069028 -1.0389594 0.84835774 -0.345551 -0.5183981 1.6338123 0.28548682 -2.1083412
0.85492927 0.2673562 -1.4398419 0.45749918 -0.41276598 -0.6533673 1.0941418 0.29222122
-2.2255335 1.3471422 0.72199774 -1.0211289 0.63031906 -2.113987 -0.63737583 -1.0333222
-1.1986856 0.099329576 -0.4499052 0.25493613 0.30003408 0.3049635 -1.3399128 -0.35283688
-1.6103896 -0.8911727 0.27149445 -1.1899637 0.139727 0.1695401 0.65328896 -0.10669557
0.3945949 -0.45947665 0.8033858 1.7713566 0.14233975 1.6560358 1.1444652 0.093032934
-0.15973917 -0.24363771 -1.293459 -0.90969276 -1.0141574 -0.54699564 -0.92852926 -0.9181414
0.3721069 0.39483717 0.017441057 -0.30131155 0.6786087 0.21082665 -0.5583329 -0.35432914
-0.5203075 1.9358604 1.5468118 0.93972325 1.0336626 1.672296 1.516076 0.45308706
0.3318109 0.2845139
00000000: 79a6 d2bd 7e9d a13c 642d f4bc 7b06 eb3d
00000010: 45dd 80bd 6892 3cbe 757d ef3d ca6c 063e
00000020: ee69 f9bd 8b68 8b3d 653b b8bd 6ff9 7cbd
00000030: 3faf 8a3d 3d62 eebd cefe 12bd d6d3 44be
00000040: 9d5c 533d b380 53bd e37f 53be 4e37 593e
00000050: 5389 773d 0c0b 60be 5807 513d cedd 3a3e
00000060: abc9 9ebd 6350 b93d ebed 13bd f9b4 f93f
00000070: 0da5 3440 ad82 d13f 2df2 3bbd 6193 713e
00000080: 6866 603f bb4e 42bf da99 a1bf 5c94 23bf
00000090: 20ef f5be a9ef 023f 9c42 b4be 7b6c d5bf
000000a0: 9385 d8bf ed2b 54bf 01a1 2abf a77b cfbf
000000b0: cde7 3cbf 6db0 ad3e 5b2a 003f 6f5b 93be
000000c0: d364 aabe 8176 eabe 0d4b 6abc af0e bf3e
000000d0: b753 85be 1948 0e3f 0615 11bf bcc8 b0be
000000e0: fd2e bebf 8966 fbbf 2ce2 38c0 d1a7 d7bf
000000f0: b6f5 e93f dcf9 1240 3e9d bd3f ea7d 913f
00000100: ac2e 903f 1c98 6b3e fffe 63bf af68 d2bf
00000110: b8e0 0ebf 31ad f93f a6d6 2840 e064 c43f
00000120: ff27 fd3e a71c 6e3e e39c d53d 8626 ddbf
00000130: 699c 2ec0 904c 9dbf cbe6 193f b391 873f
00000140: a5a8 b0bc 8546 003f 13de 17bf 8674 c83e
00000150: 5210 ae3f 8649 6c3c e09f b5bf 7d2e 7d3f
00000160: f240 a53d 9ffc 84bf f92d 593f 10ec b0be
00000170: bdb5 04bf c320 d13f 542b 923e 10ef 06c0
00000180: a5dc 5a3f e9e2 883e bd4c b8bf 553d ea3e
00000190: 1056 d3be 1443 27bf d70c 8c3f 059e 953e
000001a0: 246f 0ec0 286f ac3f d8d4 383f 5ab4 82bf
000001b0: 975c 213f 904b 07c0 102b 23bf e743 84bf
000001c0: 886e 99bf 4e6d cb3d f959 e6be fd86 823e
000001d0: 119e 993e 2d24 9c3e 4382 abbf 09a7 b4be
000001e0: 3f21 cebf e523 64bf 5201 8b3e bb50 98bf
000001f0: 9814 0f3e ec9b 2d3e f23d 273f 3583 dabd
00000200: 5808 ca3e 8640 ebbe b1aa 4d3f d0bb e23f
00000210: 83c1 113e fbf8 d33f d67d 923f 0d88 be3d
00000220: aa92 23be 2a7c 79be 1190 a5bf a0e1 68bf
00000230: e9cf 81bf e807 0cbf 18b4 6dbf 510b 6bbf
00000240: cc84 be3e 1928 ca3e 8ce0 8e3c 8245 9abe
00000250: 4db9 2d3f f1e2 573e e8ee 0ebf a16a b5be
00000260: df32 05bf 46ca f73f eefd c53f b491 703f
00000270: 0e4f 843f cc0d d63f c70e c23f 07fb e73e
00000280: 1ee3 a93e ceab 913e

bias f4 [6]
-0.09575102 0.77354753 0.29825658 0.34344184 1.5716658 -0.7218998
00000000: 1c19 c4bd 3607 463f 16b5 983e 9cd7 af3e
00000010: 582c c93f 6dce 38bf

weight f4 [16, 6, 3, 3]
-0.04791858 -0.09410631 -0.0437112 -0.17907609 -0.007311618 0.03141822 -0.15864289 0.04257735
0.009738089 0.29169816 -0.47323734 -0.25980708 0.21047299 -1.0018169 -0.40709603 0.10482516
-0.7690642 -0.085339844 -0.11398049 -0.17888574 -0.0045884484 -0.32790402 -0.46216655 -0.50945747
0.03560451 -0.706543 -0.49964088 0.06447872 -0.077832825 -0.29672205 -0.21933703 -0.023167642
0.09124319 0.7060614 0.5316719 0.3406195 -0.06345155 1.0483996 -0.38581765 1.3339143
0.39649966 -0.67734444 0.9131319 0.2708261 -0.33055055 -0.25759476 0.65615636 0.13494809
0.14793007 1.1798797 0.02956503 -0.43992454 -0.042369403 -0.33130488 0.0699448 0.06371025
-0.029091751 0.059330747 -0.04824874 0.0019822696 0.11075755 -0.13327561 0.057134416 0.8792126
0.7048663 0.20356421 0.24060863 0.71506256 -0.44585454 -0.19087519 0.6350222 -0.40531325
-0.53305376 -0.44098717 -0.17726186 -0.1676464 -0.25796056 -0.4354008 0.2362947 0.411226
-0.2448724 -0.3395992 -0.53802603 -0.25738993 0.07373659 -0.06120539 0.2674071 0.25337708
-0.069632225 0.3570078 0.39011836 -0.3871912 -0.2225063 0.24667268 -0.40433425 -0.76211154
0.38145003 0.15270177 -0.59660906 0.035452906 -1.345362 -1.2748517 1.2346021 0.20261128
-1.0957634 1.000205 1.2279931 0.42832989 0.1374636 0.1336426 -0.095660515 -0.09736837
0.014172594 0.044196147 -0.0021478562 0.012691889 0.08088984 -0.2158043 -0.44032645 0.17089769
-1.0769948 -0.026006931 0.18570156 1.0946923 1.538111 0.8341468 0.0987421 0.19787088
-0.15735123 0.3759796 0.26980063 0.017652363 -0.14353357 0.42409897 -0.5011287 -0.061183773
-0.19118449 -0.08460911 -0.86666745 0.056976844 0.003091492 0.63065034 -0.012086859 -0.26327333
0.08130479 0.42793268 0.21438834 -0.34546483 -0.720116 -0.34634554 0.20242286 0.08290097
-0.01687073 0.21120247 0.62011164 0.65909886 0.63030887 0.53901136 0.20190445 -0.07249135
-0.8439348 -1.1940325 -0.050742425 0.10106169 0.036313027 -0.12151049 -0.10851845 -0.031085916
-0.03855873 -0.09382786 -0.010181757 0.17376621 -0.22367214 0.22563149 -0.19934052 0.10099489
0.3099766 0.22711922 0.23414357 -0.05127457 -0.5170649 -0.9420963 -0.43156528 0.92249644
1.3769798 0.30899587 -0.030845866 0.06976952 -0.23673126 0.12876056 -0.45548147 0.10302542
0.011499616 0.016601177 0.2016881 -0.09580333 -0.44813797 0.04769103 -0.10038311 -0.30409303
-0.3591171 0.19914712 -0.3375884 0.016802747 0.20205465 0.048585452 0.38245147 0.20604908
0.13176382 0.09250368 -0.6669527 -0.608478 -0.5886122 0.54345196 1.0931417 0.67477715
-0.100284986 -0.049361743 0.072477415 0.037982382 0.04480475 0.009431888 0.11634728 0.08455963
0.074423924 -0.34881753 -0.16104215 0.54858285 -0.5204221 0.22837369 0.23981847 -0.34390792
-0.5487185 -0.056410078 0.23611635 0.23350689 0.20961228 -0.021925876 -0.42729318 0.39911002
-0.06077795 -0.2116259 -0.3173385 -0.37180966 0.5382487 0.18692131 -0.9354544 -0.22641513
0.8958002 -0.29947063 -0.11566276 0.015372845 0.17529997 -0.66449237 -0.43059257 -0.5490895
00000000: 4646 44bd cfba c0bd 840a 33bd b95f 37be
00000010: 4c96 efbb 64b0 003d 4873 22be 9665 2e3d
00000020: 818c 1f3c 7659 953e 2a4c f2be 6f05 85be
00000030: 3b86 573e 893b 80bf e46e d0be 93ae d63d
00000040: 64e1 44bf a8c6 aebd 9a6e e9bd d32d 37be
00000050: b25a 96bb 09e3 a7be 18a1 ecbe ce6b 02bf
00000060: 09d6 113d 01e0 34bf eed0 ffbe 6b0d 843d
00000070: d166 9fbd f4eb 97be e399 60be 11ca bdbc
00000080: b6dd ba3d 71c0 343f a61b 083f ae65 ae3e
00000090: e3f2 81bd f531 863f e489 c5be b4bd aa3f
000000a0: 0102 cb3e 7266 2dbf 03c3 693f b8a9 8a3e
000000b0: ec3d a9be 76e3 83be ddf9 273f d52f 0a3e
000000c0: fb7a 173e 4c06 973f 5d32 f23c ca3d e1be
000000d0: 8a8b 2dbd cba0 a9be 383f 8f3d 857a 823d
000000e0: d351 eebc cc04 733d 79a0 45bd f7e8 013b
000000f0: dbd4 e23d 6779 08be c705 6a3d 1414 613f
00000100: 1e72 343f 2373 503e 1c62 763e 570e 373f
00000110: 0c47 e4be c974 43be d190 223f 3885 cfbe
00000120: 3676 08bf 12c9 e1be 2284 35be 7fab 2bbe
00000130: 6813 84be dbec debe 3df7 713e 378c d23e
00000140: d5bf 7abe f2df adbe 13bc 09bf 9dc8 83be
00000150: 3603 973d 81b2 7abd 95e9 883e a4ba 813e
00000160: 579b 8ebd bac9 b63e 98bd c73e ed3d c6be
00000170: b1d8 63be c397 7c3e e604 cfbe be19 43bf
00000180: 6b4d c33e da5d 1c3e 5fbb 18bf 1137 113d
00000190: d234 acbf 572e a3bf 7107 9e3f 5579 4f3e
000001a0: fa41 8cbf b806 803f e12e 9d3f 0e4e db3e
000001b0: 42c3 0c3e 9bd9 083e a9e9 c3bd 1169 c7bd
000001c0: 2b34 683c 0507 353d 0cc3 0cbb a4f1 4f3c
000001d0: 93a9 a53d cdfb 5cbe 7872 e1be ceff 2e3e
000001e0: f7da 89bf 7d0c d5bc 8d28 3e3e e11e 8c3f
000001f0: d2e0 c43f a58a 553f 4c39 ca3d aa9e 4a3e
00000200: ae20 21be 6680 c03e 4f23 8a3e b09b 903c
00000210: 77fa 12be 8023 d93e f849 00bf d69b 7abd
00000220: dec5 43be 8b47 adbd ebdd 5dbf 8d60 693d
00000230: a19a 4a3b 4d72 213f f607 46bc c3cb 86be
00000240: 2083 a63d fe19 db3e 9e88 5b3e c4e0 b0be
00000250: 8659 38bf 3454 b1be f047 4f3e fcc7 a93d
00000260: 7c34 8abc 7645 583e a3bf 1e3f b4ba 283f
00000270: ec5b 213f a6fc 093f 0ac0 4e3e 5876 94bd
00000280: 1c0c 58bf 0fd6 98bf 4ad7 4fbd 6ef9 ce3d
00000290: f8bc 143d 7eda f8bd ec3e debd e4a7 febc
000002a0: c2ef 1dbd d228 c0bd 62d1 26bc c5ef 313e
000002b0: 4f0a 65be f10b 673e ec1f 4cbe 69d6 ce3d
000002c0: 41b5 9e3e f191 683e 55c3 6f3e 4905 52bd
000002d0: 5e5e 04bf 392d 71bf 20f6 dcbe ba28 6c3f
000002e0: e040 b03f b534 9e3e 78b0 fcbc 52e3 8e3d
000002f0: ae69 72be cfd9 033e de34 e9be fefe d23d
00000300: e368 3c3c 31ff 873c 5387 4e3e 8934 c4bd
00000310: 5772 e5be ab57 433d a995 cdbd 15b2 9bbe
00000320: 32de b7be 39ed 4b3e 63d8 acbe eaa5 893c
00000330: 6ae7 4e3e 8a01 473d aed0 c33e 88fe 523e
00000340: 18ed 063e 9272 bd3d 6abd 2abf 37c5 1bbf
00000350: 4aaf 16bf ab1f 0b3f 11ec 8b3f 32be 2c3f
00000360: 3762 cdbd 8a2f 4abd 0a6f 943d 6a93 1b3d
00000370: 2f85 373d 3588 1a3c 7c47 ee3d 992d ad3d
00000380: 926b 983d 3698 b2be 3ce8 24be ed6f 0c3f
00000390: 623a 05bf cbda 693e f992 753e b314 b0be
000003a0: d178 0cbf 410e 67bd 7cc8 713e 6e1c 6f3e
000003b0: 9aa4 563e e59d b3bc 2cc6 dabe 2658 cc3e
000003c0: 4df2 78bd 76b4 58be 317a a2be d65d bebe
000003d0: abca 093f 4d68 3f3e f179 6fbf 5ed9 67be
000003e0: 2953 653f 3754 99be 99e0 ecbd 63de 7b3c
000003f0: d681 333e 2c1c 2abf a176 dcbe 2191 0cbf

bias f4 [16]
0.16500573 -1.2435833 -1.3234295 -2.208753 2.390516 1.0907831 -0.29842594 -1.1480196
-0.78599757 0.3498933 -0.5589361 -0.8623271 -0.6536565 0.014621996 0.2707486 1.9763836
00000000: 43f7 283e bd2d 9fbf 2366 a9bf 365c 0dc0
00000010: 37fe 1840 c89e 8b3f 49cb 98be 4ef2 92bf
00000020: 2337 49bf 3725 b33e 7016 0fbf 78c1 5cbf
00000030: 0856 27bf 1991 6f3c 8f9f 8a3e 23fa fc3f

weight f4 [32, 16, 3, 3]
-0.36358023 -0.61304206 -0.27702045 -0.41945842 -0.47756842 -0.46486065 0.53676826 0.80809945
0.44237116 0.5316757 0.28896564 0.0379523 -0.15767162 0.46658722 0.1880409 -0.3199609
-0.40128163 -0.19737664 -0.16448988 0.046693865 -0.24155585 -0.87578166 -0.4097624 -0.5519263
0.18392186 0.09896275 0.26484478 -1.0353224 -0.023073845 0.37818074 -0.2711533 0.6807007
1.0159543 -0.25484028 0.06986848 0.0029593243 0.50429505 -0.20248997 -0.30108583 -0.11493615
-0.13945009 0.6103717 0.04135903 -0.116034046 -0.18817063 0.0064141364 -0.10896022 -0.36246258
0.41731733 -0.20509079 -0.1357816 0.49074486 0.36465988 0.4470429 0.16616607 -0.06517125
-0.04337782 -0.012775307 -0.19473158 0.18470244 0.11064126 -0.30752409 -0.14286497 -0.15672804
0.062362377 0.27314827 -0.1989002 0.10850158 -0.10503249 -0.09785703 -0.012300591 0.15988636
-0.03965425 -0.11201274 0.27164325 -0.09695849 -0.08436407 -0.102574594 -0.21551397 -0.07538182
-0.04579382 -0.3754677 -0.28491575 0.36320636 -0.36522335 -0.11560792 -0.41310254 -0.3981487
0.40029058 0.38896137 -0.5964931 -0.96322095 -0.50525963 -0.47382754 0.09076522 0.073361024
-0.36071226 0.16079369 0.532056 -0.09913653 0.28199136 -0.001602828 0.17969981 0.31809112
-0.060357977 0.24185637 0.41807652 -0.1095766 -0.10876429 0.29641852 0.32768747 -0.18877755
0.1221011 -0.12616219 0.07984381 -0.20309205 0.101849005 0.13511246 -0.2909096 0.15366082
0.48005843 0.08656314 0.18649183 0.33415434 -0.35713944 -0.57794195 0.06722944 -0.22085576
0.31643993 0.2098531 -0.0073345136 -0.316868 0.14627671 -0.047233675 -0.0044671088 0.4196239
0.43275744 0.43219024 -0.025128977 -0.73778856 -0.4606387 0.2126516 -0.7274189 0.24466622
0.79329854 0.20955506 -0.11471168 0.83725065 -0.43402305 -0.46229795 0.6297535 -0.34900916
-0.51330435 0.3602066 -0.16703868 0.14784096 0.07732974 -0.6310572 -0.32637617 0.34525415
0.1668124 0.038502064 0.46835905 -0.3204916 0.19090849 -0.5694693 -0.3009634 -0.14940263
-0.2642874 0.030715553 -0.027313929 -0.2307487 -0.23176633 -0.46041286 -0.8126636 -0.79105914
-0.7303813 -0.0405709 0.6777364 0.57212573 -0.08755457 0.038665153 -0.47343782 0.24450055
0.12234619 0.21032344 0.10841593 0.08563635 -0.17457929 -0.09496864 -0.17728664 -0.104246914
0.3214235 0.199353 -0.08106902 0.4222812 -0.25528896 -0.045233976 -0.03166011 -0.46411207
0.50230855 0.56821805 -0.8518455 -0.91265965 0.45349598 -0.11868436 0.12509976 0.06121313
-0.065306455 0.109596856 -0.047374375 -0.045778047 -0.13338113 0.32929972 0.050879568 0.25014374
-0.01565421 0.18333755 -0.10540418 -0.0366508 0.0880694 -0.004828698 0.220978 0.19624893
0.08378716 0.2523668 0.1581442 -0.2579177 -0.14584193 0.30164874 -0.3818761 -0.33641246
0.31435037 0.13794705 0.21460252 -0.2059768 0.3967717 -0.45579538 -0.64182264 -0.34027368
0.18949625 -0.076397 -0.1743498 0.41736558 -0.73431623 -0.38827348 0.5328615 -0.26906905
-0.73165184 0.6696665 0.16969107 -0.17014147 0.018675817 -0.29201737 -0.061297122 -0.5507031
00000000: 3027 babe 53f0 1cbf a0d5 8dbe 41c3 d6be
00000010: d983 f4be 3702 eebe a569 093f 9bdf 4e3f
00000020: 797e e23e e61b 083f 4ef3 933e df73 1b3d
00000030: ab74 21be 85e4 ee3e cb8d 403e ead1 a3be
00000040: c974 cdbe 1a1d 4abe 0970 28be 1142 3f3d
00000050: 6b5a 77be 3a33 60bf 61cc d1be 0b4b 0dbf
00000060: 0356 3c3e fbac ca3d bc99 873e 7285 84bf
00000070: 5c05 bdbc e8a0 c13e 9bd4 8abe 6742 2e3f
00000080: ca0a 823f 6d7a 82be 3517 8f3d 39f1 413b
00000090: 7b19 013f 8859 4fbe ec27 9abe a563 ebbd
000000a0: 01cc 0ebe 5241 1c3f 1668 293d 42a3 edbd
000000b0: cdaf 40be ad2d d23b 8926 dfbd b294 b9be
000000c0: 9eaa d53e 5203 52be 550a 0bbe e942 fb3e
000000d0: b3b4 ba3e cfe2 e43e 7027 2a3e 8178 85bd
000000e0: f1ac 31bd 854f 51bc b767 47be a322 3d3e
000000f0: e397 e23d cc73 9dbe 324b 12be 517d 20be
00000100: b16f 7f3d 17da 8b3e 7eac 4bbe 1436 de3d
00000110: 461b d7bd 4469 c8bd 6b88 49bc 40b9 233e
00000120: 7f6c 22bd ef66 e5bd d314 8b3e 2c92 c6bd
00000130: 12c7 acbd a112 d2bd b2af 5cbe c961 9abd
00000140: 4d92 3bbd 4d3d c0be 7ae0 91be 2ff6 b93e
00000150: 8efe babe d8c3 ecbd 2d82 d3be 25da cbbe
00000160: e3f2 cc3e f225 c73e c6b3 18bf a695 76bf
00000170: b258 01bf 8699 f2be 1ee3 b93d 4e3e 963d
00000180: 47af b8be 1aa7 243e d234 083f 1808 cbbd
00000190: 2c61 903e fc15 d2ba 3a03 383e d7dc a23e
000001a0: ed39 77bd 32a9 773e 200e d63e b269 e0bd
000001b0: d0bf debd 2bc4 973e a7c6 a73e e74e 41be
000001c0: 2410 fa3d a930 01be 2785 a33d 5df7 4fbe
000001d0: 3696 d03d ec5a 0a3e 1af2 94be 4359 1d3e
000001e0: 38ca f53e 0448 b13d b7f7 3e3e 4716 ab3e
000001f0: fbda b6be 01f4 13bf 97af 893d 0328 62be
00000200: 6a04 a23e bbe3 563e 5c56 f0bb 863c a2be
00000210: 90c9 153e 1978 41bd d360 92bb f2d8 d63e
00000220: 6292 dd3e 0a48 dd3e 49db cdbc b6df 3cbf
00000230: d6d8 ebbe 57c1 593e 2038 3abf c889 7a3e
00000240: 9d15 4b3f 9a95 563e f5ed eabd 0f56 563f
00000250: 4538 debe 51b2 ecbe 8637 213f 54b1 b2be
00000260: ea67 03bf 006d b83e 300c 2bbe 9f63 173e
00000270: 0e5f 9e3d f78c 21bf c71a a7be 27c5 b03e
00000280: dfd0 2a3e 57b4 1d3d c2cc ef3e 7a17 a4be
00000290: 847d 433e bdc8 11bf e017 9abe 01fd 18be
000002a0: ae50 87be 2f9f fb3c 76c1 dfbc 6349 6cbe
000002b0: 2754 6dbe 3cbb ebbe b90a 50bf da82 4abf
000002c0: 45fa 3abf ac2d 26bd 2280 2d3f d576 123f
000002d0: cf4f b3bd 5a5f 1e3d 7166 f2be 5a5e 7a3e
000002e0: a490 fa3d 075f 573e 2c09 de3d 1c62 af3d
000002f0: eac4 32be eb7e c2bd a18a 35be 687f d5bd
00000300: 9f91 a43e 3123 4c3e 8407 a6bd 3e35 d83e
00000310: 3cb5 82be 4347 39bd 08ae 01bd 19a0 edbe
00000320: 4b97 003f bd76 113f 8c12 5abf 10a4 69bf
00000330: a030 e83e c910 f3bd 271a 003e 9eba 7a3d
00000340: 64bf 85bd 5174 e03d a20b 42bd c381 3bbd
00000350: 1095 08be f999 a83e 1867 503d d712 803e
00000360: 423d 80bc d7bc 3b3e 26de d7bd 261f 16bd
00000370: bb5d b43d 0e3a 9ebb 0f48 623e 7bf5 483e
00000380: 9a98 ab3d 3936 813e 8ef0 213e ca0d 84be
00000390: 9657 15be b471 9a3e 4485 c3be 413e acbe
000003a0: 88f2 a03e fe41 0d3e c3c0 5b3e 95eb 52be
000003b0: a925 cb3e 035e e9be 7d4e 24bf 5a38 aebe
000003c0: 4e0b 423e 0876 9cbd c188 32be f1b0 d53e
000003d0: 26fc 3bbf c8cb c6be 9c69 083f 6bc3 89be
000003e0: 894d 3bbf 446f 2b3f 7fc3 2d3e 9139 2ebe
000003f0: 07fe 983c 4d83 95be b112 7bbd e1fa 0cbf

bias f4 [32]
-0.6414526 0.60534483 -1.0702977 2.183114 0.7587342 -0.9792432 0.62606853 1.7497357
-1.3152139 -0.34522763 -0.48660052 0.20183885 -0.22476143 -0.24219105 0.2048925 0.045371864
-0.5201469 -0.06800754 0.40626776 -0.19612853 0.090123266 1.7124763 1.0191461 0.2744062
-0.4351196 0.08729128 -0.8873705 0.01856473 0.59594005 -0.02233751 -1.0868306 -0.5808381
00000000: 3d36 24bf e1f7 1a3f 84ff 88bf 24b8 0b40
00000010: 683c 423f afaf 7abf 0746 203f 57f7 df3f
00000020: ee58 a8bf adc1 b0be b423 f9be d8ae 4e3e
00000030: dc27 66be ee00 78be 57cf 513e d9d7 393d
00000040: 5928 05bf 8a47 8bbd 5402 d03e ebd5 48be
00000050: 8c92 b83d 6c32 db3f 6173 823f f87e 8c3e
00000060: ffc7 debe c5c5 b23d b72a 63bf 1015 983c
00000070: 878f 183f 27fd b6bc 441d 8bbf ceb1 14bf

weight f4 [64, 32, 3, 3]
0.18139738 0.19106601 0.078128956 -0.20497239 0.18083656 0.33612877 0.4003205 -0.17590325
-0.040198892 0.05781772 -0.0011262607 -0.03474055 -0.23146766 -0.20444126 0.18725196 -0.009907884
-0.17081594 -0.05587353 -0.109041184 0.17466314 0.016590603 0.17459552 0.2640885 0.4054338
0.039401192 -0.07536893 -0.48285538 -0.3634414 -0.2996675 0.14658082 -0.059553076 -0.078663215
-0.5368471 0.09668477 -0.18791805 0.11514264 -0.124498814 0.029505415 0.07693055 0.019756109
-0.152507 0.028942399 0.21114153 -0.18937375 -0.024082106 0.08644054 -0.3737045 -0.16453496
-0.07799377 0.04678169 -0.009056111 0.36366466 0.018448174 -0.29302964 0.13467924 -0.38663265
0.09238352 -0.060705874 -0.4225447 -0.540386 0.62257606 0.00966297 0.020643227 0.05476082
0.071700655 0.003953485 -0.094138324 -0.20072785 -0.3461607 0.103964955 -0.112986006 -0.05369617
0.00074319536 -0.18246368 0.20938727 -0.447976 0.23094772 -0.14091349 0.43674514 -0.083497696
-0.07851585 0.054233737 0.19217992 0.29786643 0.2780773 0.08971639 0.023776865 -0.0841349
-0.2711658 -0.17401955 0.17665268 -0.1878204 -0.17671387 -0.16096139 -0.27820832 -0.11123544
0.029720563 -0.11645802 0.05650987 0.16134378 0.052752748 -0.14976853 0.0351326 -0.091460414
-0.51644385 -0.019393066 -0.10339519 0.44838518 0.16257073 -0.2849722 -0.15796167 -0.042356405
0.067165546 0.22952554 -0.114065066 -0.21708259 -0.15350279 -0.36437076 -0.00786809 0.2350238
-0.0027337377 -0.11979856 -0.098226845 0.018039603 -0.37014115 0.29015583 -0.054477174 -0.29543233
-0.04378804 -0.16469054 -0.27686697 0.0499353 0.06443681 -0.30013338 -0.13401265 -0.16208033
-0.4605437 0.2164206 -0.101706155 -0.10952983 -0.09732904 -0.20593992 0.084673285 -0.026652412
0.0014221129 0.11249466 0.04953802 -0.08125501 -0.3004493 -0.0055566807 -0.23257698 -0.026388986
0.054177646 -0.459605 -0.14067364 -0.33361822 0.4913311 0.067840174 0.11905263 0.2922847
0.29943478 0.17234953 -0.2525736 -0.5106587 0.24631916 -0.23712097 0.054102074 0.0014404785
0.021191536 0.0870588 0.20342995 -0.45154896 -0.2604807 -0.14145938 -0.031214545 -0.28220135
-0.07364285 -0.14435557 0.24007924 0.12270444 -0.22291772 0.0010787043 -0.32479888 0.22443502
-0.24663648 0.19486013 -0.011684066 0.15251626 0.29406932 0.25832525 -0.54917383 -0.12814702
0.25701475 -0.3604331 -0.2460672 0.24551567 -0.39059052 -0.30597895 0.10676703 -0.17524019
0.089543864 0.18108554 0.052301496 -0.02390558 -0.10957825 -0.08658955 0.078296155 0.07621415
-0.1667957 -0.40414807 -0.083238825 0.034126826 0.15271752 0.1047783 -0.20785016 -0.1436946
0.3283981 -0.05647535 0.48895246 0.06394629 0.02375244 0.971807 -0.0022323327 -0.5310881
-0.19096315 0.13180153 0.12890191 -0.1134163 0.039264992 0.20498054 -0.22684824 0.01947589
-0.15546817 -0.35781232 0.13208812 -0.2588106 0.44703448 0.10747334 -0.30981067 0.42484483
-0.27119422 -0.34087342 -0.18637824 0.18780568 -0.49592736 -0.15489139 0.18555267 -0.14356901
0.2663526 -0.110647246 -0.18583134 0.32432592 -0.29111615 -0.28108472 -0.1625964 0.11956925
00000000: 3cc0 393e cfa6 433e 1302 a03d 48e4 51be
00000010: 382d 393e 1219 ac3e cff6 cc3e fb1f 34be
00000020: 98a7 24bd 46d2 6c3d 0a9f 93ba 1b4c 0ebd
00000030: dc05 6dbe 0d59 51be fabe 3f3e ad54 22bc
00000040: 60ea 2ebe a5db 64bd fc50 dfbd e5da 323e
00000050: 04e9 873c 2bc9 323e 9c36 873e 0595 cf3e
00000060: 2563 213d 075b 9abd d238 f7be fe14 babe
00000070: 056e 99be 4819 163e eded 73bd 2e1a a1bd
00000080: d06e 09bf aa02 c63d 976d 40be e8cf eb3d
00000090: 3cf9 febd 57b5 f13c c48d 9d3d 90d7 a13c
000000a0: cc2a 1cbe 9c18 ed3c 7c35 583e 31eb 41be
000000b0: d647 c5bc bd07 b13d 3256 bfbe da7b 28be
000000c0: 33bb 9fbd 289e 3f3d 1560 14bc 4132 ba3e
000000d0: a020 973c fb07 96be 5be9 093e b7f4 c5be
000000e0: 9233 bd3d b9a6 78bd c757 d8be bd56 0abf
000000f0: 2561 1f3f 6f51 1e3c fc1b a93c e24c 603d
00000100: cbd7 923d 3c8c 813b 98cb c0bd 9a8b 4dbe
00000110: fa3b b1be 94eb d43d 3565 e7bd 84f0 5bbd
00000120: ffd2 423a c2d7 3abe 9e69 563e 1c5d e5be
00000130: 8f7d 6c3e a04b 10be 0f9d df3e d700 abbd
00000140: ebcc a0bd 3224 5e3d d0ca 443e f381 983e
00000150: 2660 8e3e 3abd b73d b3c7 c23c eb4e acbd
00000160: 3ed6 8abe 2e32 32be 71e4 343e fe53 40be
00000170: 7bf4 34be 10d3 24be 5271 8ebe 68cf e3bd
00000180: 8a78 f33c 8b81 eebd e576 673d 4e37 253e
00000190: 4413 583d ec5c 19be 34e7 0f3d 994f bbbd
000001a0: aa35 04bf 35de 9ebc dbc0 d3bd be92 e53e
000001b0: f178 263e e0e7 91be b4c0 21be e97d 2dbd
000001c0: 178e 893d be08 6b3e f29a e9bd e64a 5ebe
000001d0: d62f 1dbe ce8e babe 29e9 00bc 14aa 703e
000001e0: 8228 33bb f358 f5bd 282b c9bd cac7 933c
000001f0: 2483 bdbe 4e8f 943e 7523 5fbd e842 97be
00000200: 165b 33bd a3a4 28be 82c1 8dbe f588 4c3d
00000210: 72f7 833d 15ab 99be 9d3a 09be 63f8 25be
00000220: 62cc ebbe 5d9d 5d3e 514b d0bd 2d51 e0bd
00000230: 7354 c7bd eae1 52be 3069 ad3d 2956 dabc
00000240: 3166 ba3a 9a63 e63d 61e8 4a3d 0769 a6bd
00000250: 7ed4 99be d114 b6bb a928 6ebe b72d d8bc
00000260: 61e9 5d3d 5951 ebbe c00c 10be 02d0 aabe
00000270: c08f fb3e caef 8a3d ded1 f33d 57a6 953e
00000280: 844f 993e 657c 303e 5451 81be 87ba 02bf
00000290: 173b 7c3e d7cf 72be 239a 5d3d 70ce bc3a
000002a0: df99 ad3c e24b b23d f14f 503e 6d31 e7be
000002b0: ba5d 85be bada 10be a5b5 ffbc b27c 90be
000002c0: 10d2 96bd f2d1 13be 55d7 753e 774c fb3d
000002d0: 8b44 64be 4f63 8d3a 0a4c a6be 4bd2 653e
000002e0: 468e 7cbe 6a89 473e 866e 3fbc 392d 1c3e
000002f0: 4190 963e 3543 843e a896 0cbf f938 03be
00000300: 7097 833e b08a b8be 0af9 7bbe 7668 7b3e
00000310: 7bfb c7be 46a9 9cbe aca8 da3d 2a72 33be
00000320: c662 b73d 7d6e 393e 183a 563d a3d5 c3bc
00000330: 906a e0bd dd55 b1bd bc59 a03d 2a16 9c3d
00000340: 7ecc 2abe 7fec cebe 1e79 aabd 92c8 0b3d
00000350: fb61 1c3e 0196 d63d acd6 54be ad24 13be
00000360: cc23 a83e b252 67bd fa57 fa3e 46f6 823d
00000370: 7a94 c23c 58c8 783f 544c 12bb 64f5 07bf
00000380: d88b 43be fbf6 063e ddfe 033e ce46 e8bd
00000390: 54d4 203d 6be6 513e e84a 68be e78b 9f3c
000003a0: 0c33 1fbe 2d33 b7be 1c42 073e d382 84be
000003b0: b4e1 e43e fc1a dc3d 819f 9ebe 4385 d93e
000003c0: f8d9 8abe f686 aebe f0d9 3ebe 2250 403e
000003d0: 31ea fdbe d99b 1ebe 8501 3e3e c103 13be
000003e0: 5e5f 883e 069b e2bd 924a 3ebe 0c0e a63e
000003f0: 2d0d 95be 56ea 8fbe ac7f 26be b9e0 f43d

bias f4 [64]
-0.3225745 -0.14469165 -0.6538434 -0.15069702 -0.4629512 0.3255414 0.58324105 -0.087944455
0.198913 -0.24779554 -0.17178209 -0.074804574 0.18263902 0.100584395 -0.38990527 -0.2979327
0.012467638 -0.4270486 -0.48926556 -0.09612193 -0.12631126 0.09783317 -0.3846338 -0.37158757
-0.057734083 -0.1329987 0.87533486 -0.41618836 -0.3455599 0.3430437 -0.2033698 0.5780955
0.6925389 -0.13268319 -0.25518972 -0.06848396 0.0614729 0.15213558 -0.0022194912 -0.1014634
0.5045758 -0.4875674 -0.07344502 0.033546694 -0.022881538 0.3969363 -0.17370544 -0.10575718
-0.34361488 -0.29268962 -0.09475746 -0.33252043 0.2090756 -0.0002742478 -0.37214777 0.47483763
-0.1903737 -0.43879318 -0.49072963 -0.22580296 -0.27805716 -0.6023078 -0.3159915 -0.012846067
00000000: 7c28 a5be 0c2a 14be 4862 27bf 5250 1abe
00000010: f107 edbe 5dad a63e 494f 153f 391c b4bd
00000020: d9af 4b3e 1dbe 7dbe a5e7 2fbe 2433 99bd
00000030: b905 3b3e 31ff cd3d aaa1 c7be a38a 98be
00000040: 1045 4c3c 1da6 dabe 0481 fabe 93db c4bd
00000050: bd57 01be c25c c83d b9ee c4be ba40 bebe
00000060: 937a 6cbd d030 08be f215 603f a416 d5be
00000070: 3aed b0be 6da3 af3e 2c40 50be 11fe 133f
00000080: 3b4a 313f 1ade 07be 3aa8 82be 5241 8cbd
00000090: 02cb 7b3d 6ec9 1b3e e274 11bb 0bcc cfbd
000000a0: e12b 013f 6fa2 f9be 586a 96bd 4268 093d
000000b0: 1072 bbbc 3c3b cb3e d7df 31be 3897 d8bd
000000c0: 4aee afbe 6adb 95be 3310 c2bd 1e40 aabe
000000d0: ea17 563e ebc8 8fb9 278a bebe eb1d f33e
000000e0: 53f1 42be 80a9 e0be ea40 fbbe e438 67be
000000f0: 825d 8ebe d830 1abf a3c9 a1be 4f78 52bc

weight f4 [128, 64, 3, 3]
0.052233923 -0.089942284 0.06240918 -0.032400493 -0.19851543 0.123222545 -0.098478206 -0.13063098
-0.12224452 0.0043451376 -0.00067287555 0.017009897 -0.009379239 0.016875243 0.1405678 -0.051057335
0.15111549 -0.0015593474 -0.016715433 -0.118838735 -0.05151567 -0.048344307 0.11264983 -0.08827389
0.027886307 -0.04043795 -0.1841148 -0.037747864 -0.07588002 -0.05052418 -0.030388162 0.1292667
-0.10928867 -0.08817523 -0.18747015 0.017503858 -0.038301513 0.059293423 0.040439602 0.016776169
-0.19264859 -0.2754977 -0.010474064 -0.013034427 0.21102601 -0.02977553 0.025130501 -0.10487229
-0.022800988 0.12334124 0.2286668 -0.014936929 0.15786637 -0.18173966 -0.029668605 -0.068217985
-0.12393136 -0.013945778 0.18567117 0.25486696 -0.044872474 -0.12547868 -0.16629337 0.029998317
-0.037982468 -0.008385825 -0.0010975488 0.1838869 -0.089358926 0.03398035 -0.14310567 -0.058009602
0.00512685 -0.082575336 -0.06424118 0.029378492 -0.2169679 0.12936047 0.02478064 -0.093723185
-0.22274938 0.001655752 -0.14469646 0.029212331 -0.027094582 0.09942914 0.14665207 -0.05055738
0.15934561 -0.026346482 -0.010363792 -0.03499882 -0.08033886 -0.04758769 -0.20668462 -0.04602185
0.04212187 0.09090461 0.06715538 -0.010619046 -0.103268504 -0.025787871 0.04210129 -0.11698097
0.024095833 -0.023654463 -0.03070589 -0.09139318 0.020955797 0.032562602 0.098002866 -0.059088014
-0.1524903 0.32050887 -0.038514428 0.04243966 -0.33440802 0.0322123 -0.011666145 -0.07137861
-0.026685106 0.015805978 0.0106045855 -0.063867286 -0.030196778 -0.0113474615 -0.037683047 -0.09224147
-0.028322121 -0.050203726 -0.1320382 0.10403839 -0.0019125362 -0.12467641 -0.20805213 0.02559509
-0.09062731 -0.09623555 -0.033872854 0.045350347 0.05292546 -0.030112425 -0.30723408 -0.039882004
-0.015751364 -0.0045421887 -0.094407074 -0.085613534 0.362615 0.022437248 -0.09261553 -0.34969333
-0.0739371 -0.00049943925 -0.056640144 -0.024301246 0.014564803 0.09264442 -0.061040517 -0.044686258
-0.07740327 -0.098906465 -0.020485837 -0.03894464 -0.02224265 -0.044954125 0.047099628 -0.08751692
-0.056724053 0.12743878 0.27037188 0.021319132 0.048680726 0.005091433 -0.07404757 0.21666694
-0.3134201 0.035391644 0.15398052 0.014249021 -0.013427033 0.010915592 -0.019318346 -0.020207698
-0.20086813 0.17785582 -0.011682272 -0.061009653 0.0012701129 0.0042373366 -0.05482682 0.15725738
-0.029300004 -0.05380619 0.013021878 -0.05228602 0.13172469 0.141547 0.0035137178 -0.10351956
0.05766679 -0.054485496 -0.06494792 -0.035087068 -0.05725815 0.18711169 -0.020699406 0.030030949
-0.014082438 -0.017590864 -0.010850889 0.05613357 0.1504858 0.0055475333 0.09471803 0.004969288
0.009498953 -0.057636883 -0.062936045 -0.04964953 -0.37506962 -0.3180468 -0.05291778 -0.15307376
-0.05491113 0.011280616 0.037498575 -0.10711319 -0.008032395 -0.14313075 0.27638814 -0.049462743
-0.037814807 0.023255767 -0.00976167 -0.04816454 -0.0571669 -0.048647903 -0.07932674 -0.052000683
-0.02543637 -0.09483026 0.06911979 -0.04014702 -0.008738716 0.21995085 -0.12683171 -0.041864354
-0.16814362 -0.005961595 0.3150827 0.16603668 -0.017619008 0.007066076 0.07738459 -0.068849005
00000000: 3df3 553d a933 b8bd c5a0 7f3d 61b6 04bd
00000010: a147 4bbe 1a5c fc3d f1ae c9bd 21c4 05be
00000020: 565b fabd a861 8e3b ea63 30ba 5758 8b3c
00000030: 61ab 19bc f33d 8a3c 01f1 0f3e 7f21 51bd
00000040: 05be 1a3e 0463 ccba ceee 88bc b961 f3bd
00000050: 1802 53bd ae04 46bd f4b4 e63d f1c8 b4bd
00000060: d371 e43c 44a2 25bd 9788 3cbe 819d 1abd
00000070: fc66 9bbd 71f2 4ebd 98f0 f8bc 7d5e 043e
00000080: bdd2 dfbd 3795 b4bd 2df8 3fbe 4064 8f3c
00000090: 0ce2 1cbd a9dd 723d ffa3 253d 2d6e 893c
000000a0: ac45 45be 090e 8dbe 699b 2bbc 598e 55bc
000000b0: 3417 583e d0eb f3bc 7bde cd3c 48c7 d6bd
000000c0: 23c9 babc 559a fc3d a127 6a3e 05ba 74bc
000000d0: b9a7 213e f619 3abe 930b f3bc dfb5 8bbd
000000e0: bacf fdbd d57c 64bc 9520 3e3e ec7d 823e
000000f0: 33cc 37bd 7c7d 00be cf48 2abe 08bf f53c
00000100: 8193 1bbd b364 09bc a0db 8fba d94c 3c3e
00000110: d001 b7bd fb2e 0b3d 4b8a 12be 7a9b 6dbd
00000120: 23ff a73b 421d a9bd e190 83bd 2aab f03c
00000130: d52c 5ebe 1277 043e c500 cb3c f1f1 bfbd
00000140: 6a18 64be d105 d93a 4f2b 14be b34e ef3c
00000150: 75f5 ddbc 81a1 cb3d f62b 163e 4115 4fbd
00000160: 7f2b 233e 94d4 d7bc e5cc 29bc ec5a 0fbd
00000170: b388 a4bd 4feb 42bd 22a5 53be 6881 3cbd
00000180: fb87 2c3d 322c ba3d c388 893d 82fb 2dbc
00000190: 707e d3bd 1641 d3bc 6772 2c3d b893 efbd
000001a0: a064 c53c 01c7 c1bc eb8a fbbc 592c bbbd
000001b0: 7eab ab3c 5d60 053d bab5 c83d 4606 72bd
000001c0: 6b26 1cbe bd19 a43e 4ec1 1dbd 35d5 2d3d
000001d0: 8737 abbe 0bf1 033d 5c23 3fbc f32e 92bd
000001e0: b99a dabc 8a7b 813c dbbe 2d3c dacc 82bd
000001f0: 3c5f f7bc b4ea 39bc 8a59 1abd 19e9 bcbd
00000200: cb03 e8bc 6ca2 4dbd 0635 07be 1412 d53d
00000210: 11ae faba 5856 ffbd 9e0b 55be cbac d13c
00000220: d09a b9bd 2517 c5bd 43be 0abd 49c1 393d
00000230: 5ec8 583d 55ae f6bc c94d 9dbe 505b 23bd
00000240: 0109 81bc a4d6 94bb 7f58 c1bd 2656 afbd
00000250: aca8 b93e 52ce b73c 36ad bdbd 010b b3be
00000260: 566c 97bd cdec 02ba 7fff 67bd 6813 c7bc
00000270: 36a1 6e3c 5cbc bd3d 9f05 7abd f008 37bd
00000280: 9b85 9ebd 798f cabd ead1 a7bc 6a84 1fbd
00000290: 3836 b6bc d121 38bd 8aeb 403d 123c b3bd
000002a0: 7b57 68bd 507f 023e 2f6e 8a3e 76a5 ae3c
000002b0: 7165 473d 09d6 a63b 41a6 97bd f0dd 5d3e
000002c0: 9978 a0be d4f6 103d 12ad 1d3e ba74 693c
000002d0: 0ffd 5bbc 50d7 323c 8241 9ebc 9d8a a5bc
000002e0: 60b0 4dbe d61f 363e 0067 3fbc 42e5 79bd
000002f0: eb79 a63a 5bd9 8a3b 1692 60bd 1408 213e
00000300: 9006 f0bc e163 5cbd b759 553c de29 56bd
00000310: d6e2 063e b2f1 103e 6746 663b 1002 d4bd
00000320: 0334 6c3d 2f2c 5fbd 6a03 85bd 75b7 0fbd
00000330: 8687 6abd 359a 3f3e cd91 a9bc 7703 f63c
00000340: 07ba 66bc b71a 90bc edc7 31bc 50ec 653d
00000350: f318 1a3e 15c8 b53b 87fb c13d 69d5 a23b
00000360: 7fa1 1b3c a714 6cbd 9de4 80bd 4e5d 4bbd
00000370: 2009 c0be 08d7 a2be 50c0 58bd 5ebf 1cbe
00000380: 7eea 60bd 55d2 383c 1b98 193d 295e dbbd
00000390: 4e9a 03bc de90 12be bf82 8d3e 7299 4abd
000003a0: b3e3 1abd e182 be3c 69ef 1fbc 2e48 45bd
000003b0: d727 6abd 0643 47bd 0f76 a2bd abfe 54bd
000003c0: ef5f d0bc 5e36 c2bd ad8e 8d3d 3471 24bd
000003d0: d52c 0fbc cc3a 613e 2ce0 01be f579 2bbd
000003e0: d72d 2cbe 7c59 c3bb 8552 a13e 8505 2a3e
000003f0: bd55 90bc 8b8a e73b d07b 9e3d b500 8dbd

bias f4 [128]
-0.06551408 -0.33817902 -0.16425367 0.030196715 -0.1965807 0.0509407 0.39504886 -0.07999912
0.20383553 -0.31040516 0.053367108 -0.38088155 -0.20858586 0.6410659 0.25565672 0.443501
-0.21868739 0.48427385 -0.029424947 -0.046898115 0.17025945 -0.07555901 -0.12525602 -0.023064189
-0.35684606 0.053015154 -0.16796823 0.08701016 -0.023773616 0.24917987 -0.013831397 0.033719018
-0.19567302 -0.46870342 -0.2402883 -0.09477647 -0.10206283 0.028973082 0.10735091 -0.17048031
-0.15034296 -0.01022153 0.22376475 -0.049288362 0.024135191 -0.3590467 0.14396296 -0.024080329
-0.09283854 0.123349294 0.14208722 0.37742838 -0.1969567 0.06591087 -0.080190584 -0.25665152
-0.31142166 -0.27655837 0.58951306 -0.2480744 0.021542925 -0.05673059 -0.061430544 0.0016116637
-0.07421862 -0.31322363 0.030850122 -0.003157659 0.5027869 -0.24814287 0.06352084 -0.034668446
-0.06327965 0.083235204 -0.38305598 -0.24557835 0.022532282 -0.311442 -0.22711425 -0.10010033
0.12147138 0.31004176 -0.28467563 -0.1670427 0.019011255 0.26665267 -0.08197382 -0.16217595
0.23939934 -0.3135907 0.002097443 -0.21383144 -0.06396054 0.18119438 0.34820303 -0.19627942
-0.19964375 0.07193308 -0.2158044 -0.224676 -0.023961216 -0.055602137 0.31926844 -0.18387723
-0.13952595 -0.18586797 -0.26209226 -0.21890917 -0.058117844 -0.049336884 0.020990258 -0.10849832
-0.12455326 0.257893 0.050759017 -0.119439 0.14580858 0.27611992 -0.026554005 -0.1149666
0.29032022 -0.021661337 -0.015095404 -0.1407663 -0.055162873 -0.14133829 -0.2194876 -0.061174598
00000000: 3f2c 86bd cd25 adbe 1d32 28be 1a5f f73c
00000010: 734c 49be 32a7 503d d843 ca3e 94d6 a3bd
00000020: 43ba 503e 6ded 9ebe 7897 5a3d e802 c3be
00000030: 8897 55be e51c 243f 70e5 823e 9012 e33e
00000040: 96ef 5fbe bef2 f73e 960c f1bc 3d18 40bd
00000050: 7e58 2e3e afbe 9abd 1d43 00be 1cf1 bcbc
00000060: 87b4 b6be 6b26 593d ddff 2bbe 6232 b23d
00000070: e3c0 c2bc 0229 7f3e 159d 62bc f41c 0a3d
00000080: 825e 48be e5f9 efbe 230e 76be 2a1a c2bd
00000090: 5106 d1bd f558 ed3c cbda db3d 6492 2ebe
000000a0: 81f3 19be 3478 27bc 9622 653e 98e2 49bd
000000b0: 2ab7 c53c f8d4 b7be 076b 133e 1c44 c5bc
000000c0: 2222 bebd 8e9e fc3d 507f 113e 4b3e c13e
000000d0: 04af 49be 47fc 863d f63a a4bd d467 83be
000000e0: a972 9fbe 0f99 8dbe 54ea 163f 3707 7ebe
000000f0: ca7a b03c 565e 68bd 989e 7bbd 763e d33a
00000100: efff 97bd d95e a0be 65b9 fc3c baf0 4ebb
00000110: a4b6 003f 2a19 7ebe 3717 823d 8000 0ebd
00000120: c398 81bd 3877 aa3d ea1f c4be e478 7bbe
00000130: 9f95 b83c 5375 9fbe a390 68be 6701 cdbd
00000140: fdc5 f83d cbbd 9e3e 01c1 91be 3e0d 2bbe
00000150: 7ebd 9b3c b386 883e e4e1 a7bd 7411 26be
00000160: 1a25 753e f68e a0be 4175 093b a1f6 5abe
00000170: befd 82bd 058b 393e ab47 b23e 79fd 48be
00000180: 696f 4cbe a751 933d d4fb 5cbe 7711 66be
00000190: 504a c4bc 11bf 63bd 2777 a33e 504a 3cbe
000001a0: e4df 0ebe 2c54 3ebe f530 86be ba29 60be
000001b0: fa0c 6ebd 7915 4abd c3f3 ab3c 5e34 debd
000001c0: c815 ffbd 8d0a 843e b0e8 4f3d 6f9c f4bd
000001d0: d84e 153e 975f 8d3e c987 d9bc 9c73 ebbd
000001e0: daa4 943e 1e73 b1bc b752 77bc 0a25 10be
000001f0: 77f2 61bd fcba 10be 5bc1 60be 3792 7abd

weight f4 [120, 128]
0.097676456 -0.032445233 -0.12525839 -0.105111904 -0.15832949 -0.079221584 0.17796585 0.022550108
0.12921356 -0.22259736 -0.06955015 -0.1647922 0.013362653 0.028723998 -0.09525797 -0.12895
-0.0360911 -0.0061792936 -0.061952706 -0.016593752 -0.16413084 0.23739046 -0.016864754 0.26483923
-0.011229515 -0.13557272 -0.20487839 -0.015555049 0.14838676 0.06505789 -0.016043661 -0.1794082
0.11725147 -0.23439431 -0.12524132 -0.17959309 -0.098774225 -0.1492965 0.0685011 0.09898098
0.11069117 -0.18040001 0.059155155 0.0036978913 -0.07619111 -0.0079503115 0.00016040636 0.06812709
0.011240348 -0.09069232 -0.14036219 -0.09292728 -0.101562865 0.09042626 0.09726557 -0.13899603
-0.02869103 -0.17125323 0.16322593 -0.032361154 -0.20601192 0.065547064 0.13538806 -0.07553534
-0.08561879 -0.1667612 -0.16027053 -0.056936555 0.024684444 0.10036582 -0.13571174 -0.13876651
-0.018732699 -0.11760285 -0.22969443 0.09668066 0.07705171 -0.20688273 -0.027353458 0.0392626
-0.18931247 -0.050239217 -0.013933949 -0.050590336 0.0075137815 -0.118184336 -0.17375202 -0.1138217
0.010911359 -0.26890168 -0.073020466 -0.18974046 0.149926 0.11321784 -0.16935362 -0.022709507
0.01063389 0.031063655 -0.1202686 -0.032962646 -0.045562815 -0.12666209 0.12588632 -0.033319954
0.060843334 0.07337238 0.018452957 -0.2343792 -0.14135326 0.028323118 -0.06656081 -0.14475983
-0.028376905 -0.10454328 0.07599872 0.10729997 0.04608762 -0.15890351 0.042233065 0.058120143
-0.19683039 0.10139098 -0.10030573 -0.07861156 0.16699052 -0.03168219 0.029649964 0.009514912
-0.037739888 -0.14826867 -0.367648 -0.15954718 -0.026362792 0.11636302 -0.055122685 -0.112169005
0.11163154 -0.0020491316 -0.22230563 -0.21324785 -0.06058882 0.084428795 0.23918045 0.16128914
-0.027211659 -0.16479959 -0.12958159 -0.12122792 0.0507021 -0.024766581 -0.1601856 -0.07751942
0.15685186 -0.03964767 -0.1590954 0.038718835 -0.08353962 -0.32741603 0.020320142 -0.05895792
-0.021846935 -0.04448979 0.07733942 0.10192991 0.023643913 -0.30663925 -0.16429253 -0.06901994
-0.05075299 -0.088010915 0.17191878 -0.01053769 -0.05229261 -0.21505596 0.0657441 -0.13315476
-0.015636215 -0.1832301 0.06789689 0.19641705 -0.27148864 -0.16236131 -0.2247956 -0.26153934
-0.07255602 -0.13213633 0.1535792 -0.04660774 -0.19363712 -0.10552061 0.07117013 0.10704911
-0.06126587 -0.3078007 0.28128797 0.12610286 -0.05517945 0.050579615 0.056780286 0.039137453
-0.14158116 -0.016626908 -0.15935938 0.15816768 -0.07773095 -0.24708691 0.01922901 -0.016621063
0.24256524 0.241047 -0.21388176 -0.19548431 -0.11074189 -0.010652042 -0.07697452 0.043612264
0.21048018 -0.07754073 -0.08838156 -0.15098557 -0.08989798 -0.10264833 0.046357095 -0.16722088
-0.21750101 0.19947363 0.0102310255 -0.08570026 -0.20994599 -0.14401738 0.23420553 0.094327055
0.042520326 -0.2103298 0.012851102 -0.08477645 0.17177926 0.06466439 -0.058519397 0.100185916
-0.08495779 0.17395909 -0.21623343 -0.104986526 0.047283456 0.33837247 0.04995369 -0.3663488
-0.064902045 0.11558703 0.10180803 -0.011580252 -0.2088037 -0.12457784 -0.08402703 0.014729022
00000000: 980a c83d 4be5 04bd bc43 00be e944 d7bd
00000010: 2021 22be ed3e a2bd ae3c 363e 01bb b83c
00000020: 8f50 043e 90f0 63be 4f70 8ebd 49bf 28be
00000030: 07ef 5a3c 974e eb3c 9c16 c3bd 780b 04be
00000040: 43d4 13bd ac7b cabb 1fc2 7dbd 9fef 87bc
00000050: ea11 28be 7c16 733e f427 8abc 0299 873e
00000060: 00fc 37bc 93d3 0abe a4cb 51be 9bda 7ebc
00000070: b3f2 173e 123d 853d ff6d 83bc c8b6 37be
00000080: 8a21 f03d 1005 70be 433f 00be 40e7 37be
00000090: 244a cabd 2fe1 18be 4e4a 8c3d 8ab6 ca3d
000000a0: 0db2 e23d c8ba 38be ad4c 723d 5258 723b
000000b0: 160a 9cbd 0642 02bc c132 2839 3786 8b3d
000000c0: 7029 383c e5bc b9bd 1bbb 0fbe a850 bebd
000000d0: 3100 d0bd 6731 b93d 2c33 c73d fa54 0ebe
000000e0: 7309 ebbc 025d 2fbe b324 273e 218d 04bd
000000f0: caf4 52be 8a3d 863d 2ba3 0a3e 46b2 9abd
00000100: e758 afbd 73c3 2abe f51d 24be 4e36 69bd
00000110: 0837 ca3c 988c cd3d 05f8 0abe cf18 0ebe
00000120: 5175 99bc c3d9 f0bd 0435 6bbe 8300 c63d
00000130: 49cd 9d3d 11d9 53be 5c14 e0bc d2d1 203d
00000140: 21db 41be a3c7 4dbd 384b 64bc d037 4fbd
00000150: 2b36 f63b a10a f2bd 0dec 31be 5a1b e9bd
00000160: 8fc5 323c 7bad 89be c18b 95bd 534b 42be
00000170: 3486 193e c1de e73d 096b 2dbe 4a09 babc
00000180: c439 2e3c 3579 fe3c 624f f6bd d703 07bd
00000190: 13a0 3abd b5b3 01be 58e8 003e 817a 08bd
000001a0: dc36 793d 4244 963d a82a 973c 1a01 70be
000001b0: e9be 10be e205 e83c 0951 88bd ec3b 14be
000001c0: af76 e8bc ca1a d6bd 38a5 9b3d 16c0 db3d
000001d0: 5fc6 3c3d 9ab7 22be 94fc 2c3d 630f 6e3d
000001e0: e88d 49be 13a6 cf3d 176d cdbd 19ff a0bd
000001f0: 90ff 2a3e 2fc5 01bd 7be4 f23c 6fe4 1b3c
00000200: 2495 1abd bed3 17be 5c3c bcbe 5660 23be
00000210: c8f6 d7bc bc4f ee3d 53c8 61bd ddb8 e5bd
00000220: 149f e43d b94a 06bb 16a4 63be a55d 5abe
00000230: fc2b 78bd 01e9 ac3d b8eb 743e fb28 253e
00000240: fcea debc 39c1 28be 09b1 04be 5846 f8bd
00000250: 01ad 4f3d 49e3 cabc b207 24be 80c2 9ebd
00000260: c69d 203e 9865 22bd e8e9 22be a497 1e3d
00000270: d216 abbd 13a3 a7be 6d76 a63c dc7d 71bd
00000280: 58f8 b2bc ed3a 36bd 2164 9e3d a1c0 d03d
00000290: e1b0 c13c d2ff 9cbe 4d3c 28be 545a 8dbd
000002a0: 5ee2 4fbd 113f b4bd 7a0b 303e 46a6 2cbc
000002b0: c730 56bd a137 5cbe d8a4 863d b959 08be
000002c0: 8517 80bc aca0 3bbe 860d 8b3d 8d21 493e
000002d0: 8f00 8bbe 0b42 26be d130 66be 7ce8 85be
000002e0: 4098 94bd bf4e 07be de43 1d3e c2e7 3ebd
000002f0: cf48 46be 311b d8bd a5c1 913d 903c db3d
00000300: ecf1 7abd 0e98 9dbe fa04 903e 1c21 013e
00000310: d903 62bd 922c 4f3d 7292 683d 984e 203d
00000320: a7fa 10be 2735 88bc 1b2f 23be b5f6 213e
00000330: 6831 9fbd 5a04 7dbe 2886 9d3c e528 88bc
00000340: 0663 783e 06d5 763e d203 5bbe 0a2d 48be
00000350: a5cc e2bd e785 2ebc d1a4 9dbd c6a2 323d
00000360: 1e88 573e adcd 9ebd 6401 b5bd f69b 1abe
00000370: 6f1c b8bd 4a39 d2bd f0e0 3d3d f33b 2bbe
00000380: 96b8 5ebe d142 4c3e 08a0 273c 9e83 afbd
00000390: 15fc 56be 4b79 13be 93d3 6f3e 8b2e c13d
000003a0: cb29 2e3d b260 57be 6e8d 523c 479f adbd
000003b0: e7e6 2f3e c46e 843d 09b2 6fbd 462e cd3d
000003c0: 5afe adbd 5522 323e 4c6c 5dbe 2d03 d7bd
000003d0: 4cac 413d 283f ad3e 3e9c 4c3d 1292 bbbe
000003e0: 5deb 84bd e5b8 ec3d ba80 d03d 19bb 3dbc
000003f0: a3d0 55be ab22 ffbd 5d16 acbd ff51 713c

bias f4 [120]
0.15007451 0.19132419 0.7242003 0.028116368 0.09981133 -0.22710499 -0.086111896 0.15590887
-0.1554237 -0.004948326 0.5272821 -0.0221287 -0.05618484 -0.34197518 0.25001928 0.6437558
0.0018531944 -0.33371505 0.08826402 0.182553 0.039171524 -0.08679231 -0.29393947 0.08445806
-0.13099894 -0.04312223 -0.13983896 -0.066672005 -0.08776431 0.2678674 0.19520599 -0.26955673
-0.12838297 -0.06798511 0.4955336 -0.08658597 0.13230684 -0.29220498 -0.32570618 -0.048261642
0.057324104 0.09604651 0.035302766 -0.14095591 0.14074539 0.113943554 0.022967173 -0.040082585
0.017295541 -0.057618253 0.13662471 -0.20447911 -0.12477016 -0.09529759 0.18956722 -0.14250962
0.47293395 -0.24368423 0.0748056 0.4587132 0.78783345 -0.09162047 0.11591594 -0.049339857
0.79665875 -0.05764867 0.3874064 0.27549416 0.67108476 0.43183374 0.0059465077 -0.10635587
0.41333458 0.18359467 -0.037049826 0.84814316 -0.07221439 -0.24028912 -0.07308773 0.16651125
0.040955525 -0.14173073 -0.018042015 0.13855587 0.024436388 0.44177675 -0.014786624 0.09351339
-0.10822492 -0.075662434 -0.01791192 -0.10521702 -0.04653083 0.69033736 0.42078188 -0.23272747
0.029020011 0.12363596 0.36806187 0.8503901 0.34848452 0.47122192 0.150963 -0.025590926
0.3266928 -0.33921015 -0.18734628 -0.11305418 -0.20983663 -0.059929505 -0.08226831 0.2681118
0.016831288 0.1091869 -0.0016201574 0.478283 -0.06300404 -0.25322363 0.06962199 -0.035009425
00000000: 22ad 193e 7dea 433e 3165 393f 4c54 e63c
00000010: e269 cc3d 368e 68be 6f5b b0bd 93a6 1f3e
00000020: 6427 1fbe 9125 a2bb f6fb 063f 3f47 b5bc
00000030: 1322 66bd 5f17 afbe 8702 803e 2ecd 243f
00000040: e3e6 f23a b3dc aabe c4c3 b43d 2cef 3a3e
00000050: 5272 203d 2bc0 b1bd 3c7f 96be 59f8 ac3d
00000060: 9624 06be efa0 30bd f231 0fbe 558b 88bd
00000070: c6bd b3bd ea25 893e 14e4 473e 5703 8abe
00000080: d376 03be c73b 8bbd 94b6 fd3e fc53 b1bd
00000090: 727b 073e e49b 95be f6c2 a6be 00ae 45bd
000000a0: aecc 6a3d 08b4 c43d a299 103d bf56 10be
000000b0: 8f1f 103e 3d5b e93d a725 bc3c a32d 24bd
000000c0: 61af 8d3c 1e01 6cbd 59e7 0b3e f962 51be
000000d0: 7f87 ffbd 622b c3bd e91d 423e 0bee 11be
000000e0: 6624 f23e 5c88 79be ae33 993d 75dc ea3e
000000f0: 74af 493f 83a3 bbbd 5665 ed3d 9718 4abd
00000100: d4f1 4b3f 0321 6cbd 225a c63e 920d 8d3e
00000110: 36cc 2b3f 5019 dd3e ecda c23b 1bd1 d9bd
00000120: 97a0 d33e 3e00 3c3e 8fc1 17bd e91f 593f
00000130: 23e5 93bd 5a0e 76be 05af 95bd ed81 2a3e
00000140: fbc0 273d dc21 11be d9cc 93bc 97e1 0d3e
00000150: d22e c83c 9030 e23e 9943 72bc f383 bf3d
00000160: 07a5 ddbd e8f4 9abd 05bc 92bc 057c d7bd
00000170: 1d97 3ebd f3b9 303f b970 d73e 1c50 6ebe
00000180: 60bb ed3c da34 fd3d 9b72 bc3e 2ab3 593f
00000190: 906c b23e 0044 f13e 0b96 1a3e 10a4 d1bc
000001a0: 4744 a73e f4ac adbe b4d7 3fbe f388 e7bd
000001b0: 6adf 56be a478 75bd 4a7c a8bd f345 893e
000001c0: c5e1 893c 629d df3d 765b d4ba 82e1 f43e
000001d0: 4308 81bd 87a6 81be f995 8e3d 0b66 0fbd

weight f4 [84, 120]
-0.06338676 -0.11847712 0.03835256 0.020298513 -0.07478568 -0.13793325 0.083701864 -0.12622406
-0.011693883 -0.19487609 -0.100205936 -0.03707834 -0.15922545 0.12626034 0.029521355 -0.10072353
4.741052e-05 -0.080553256 -0.048870273 -0.08501562 0.09506574 -0.081956506 -0.13618676 -0.024427304
-0.09634425 0.05376736 0.06195117 -0.04613812 0.014302185 0.057790913 -0.2087239 -0.020121766
0.018085014 0.09376844 -0.14207485 0.05550434 -0.055428844 -0.15340126 -0.19830257 -0.043481592
-0.051847886 -0.06234626 -0.15314241 -0.08730353 0.003463861 -0.04340655 -0.15355271 0.051105086
-0.0130309155 -0.013255628 0.018208344 -0.14022836 0.09539256 0.11565702 -0.073823504 -0.039161377
0.06593775 -0.13580886 -0.13254827 -0.13525353 -0.0040004416 0.060270857 0.0647951 0.10002284
-0.023680355 -0.07321969 -0.06689577 -0.030500278 -0.16674311 -0.01147847 0.07937727 0.17829339
0.14375459 -0.09182942 0.06606019 0.021364603 -0.021454018 -0.1439563 -0.0936307 0.10161394
-0.054724265 -0.015951391 0.054784704 -0.0548266 -0.053916804 -0.089357406 -0.018932054 -0.14048158
-0.06607544 0.019692484 0.05176614 -0.18382417 0.035688255 -0.0645291 -0.024596274 0.028232884
-0.14538153 -0.049940277 -0.1175018 -0.09292741 -0.19804035 -0.07792504 0.06915529 -0.01491451
0.102117695 -0.066562146 0.03002648 0.06437399 -0.09659356 -0.08759085 -0.11085355 0.018227989
0.002135778 0.17953727 0.0068722838 -0.0002517229 0.000965938 -0.25898123 -0.019424811 0.043984585
-0.001957566 0.008225582 0.17857401 -0.2657172 0.04075342 -0.1195346 0.021908596 -0.017647116
-0.0615722 0.023235423 -0.009079589 0.032927573 -0.051173937 -0.016110247 0.032649994 -0.10844455
-0.015063953 -0.018550903 -0.05655744 -0.003739117 0.055434678 0.00051738915 -0.0761193 -0.075203955
0.09140752 -0.13167065 -0.07395108 -0.09674094 -0.055975977 -0.0015337024 -0.13881963 -0.060017798
-0.06626281 -0.08347812 -0.18044315 0.016430104 0.11750348 -0.030237164 -0.15670767 -0.091703415
0.0863495 0.07846817 -0.027600856 -0.13061878 -0.010275084 -0.0356374 -0.073627524 0.10010133
-0.03929114 -0.20107262 -0.1273433 -0.021807918 -0.048370156 -0.0049664937 -0.016122859 0.10505832
0.11271508 0.019766461 0.017490666 0.002400973 0.079491355 0.020133946 -0.098386616 -0.0043155937
-0.18065523 -0.046586674 0.02824623 -0.035796527 -0.008907229 0.013485676 -0.010610519 0.044569578
-0.041353617 -0.0699153 -0.06459297 0.04115415 -0.20263687 -0.29278478 0.009087397 0.06950965
0.025389165 -0.090563856 -0.01700751 -0.21341524 0.046261895 -0.03760635 -0.22266221 -0.2852565
-0.00985768 0.004900526 0.124669515 -0.03119274 -0.029398113 0.05162488 0.013558233 -0.11690363
-0.029870829 -0.03810361 -0.109700486 0.03424581 -0.09214121 -0.04848932 0.020963008 -0.16954054
0.08671846 -0.032979913 0.09481216 -0.17174172 -0.13622755 -0.20697574 0.00038453485 0.07773603
0.0040935716 0.13013466 -0.025744844 0.11381731 -0.0057960944 -0.27305928 -0.19294623 0.02416121
0.02572797 -0.09313551 -0.047365017 -0.019651916 0.108538985 -0.13976105 0.03002177 -0.043945808
-0.087916315 -0.07996881 0.124330714 0.0106207095 -0.1845166 0.039168913 -0.048660316 -0.151611
00000000: ebd0 81bd 22a4 f2bd 9317 1d3d 1149 a63c
00000010: 3c29 99bd 603e 0dbe e26b ab3d e140 01be
00000020: b397 3fbc 998d 47be c538 cdbd 75df 17bd
00000030: ff0b 23be 644a 013e c5d6 f13c 2348 cebd
00000040: a9da 4638 1bf9 a4bd 322c 48bd ab1c aebd
00000050: d4b1 c23d d0d8 a7bd 8b74 0bbe c51b c8bc
00000060: 2250 c5bd 2a3b 5c3d 83c0 7d3d 53fb 3cbd
00000070: b653 6a3c 2ab6 6c3d b8bb 55be 67d6 a4bc
00000080: 0627 943c ab09 c03d 127c 11be 8558 633d
00000090: 5b09 63bd 3815 1dbe d40f 4bbe c119 32bd
000000a0: 735e 54bd cb5e 7fbd 5dd1 1cbe 31cc b2bd
000000b0: f201 633b 11cb 31bd ec3c 1dbe 9153 513d
000000c0: 9f7f 55bc 222e 59bc aa29 953c 0698 0fbe
000000d0: 2d5d c33d 96dd ec3d c730 97bd ae67 20bd
000000e0: 5f0a 873d 7a11 0bbe bcba 07be e77f 0abe
000000f0: 2316 83bb 93de 763d 4bb3 843d c6d8 cc3d
00000100: 4efd c1bc 34f4 95bd a600 89bd b8db f9bc
00000110: b5be 2abe 3110 3cbc 8d90 a23d 8b92 363e
00000120: 6734 133e 1011 bcbd 914a 873d d204 af3c
00000130: 56c0 afbc 4869 13be 74c1 bfbd f81a d03d
00000140: 8d26 60bd 7eac 82bc ed65 603d db91 60bd
00000150: ded7 5cbd 0401 b7bd 6517 9bbc 67da 0fbe
00000160: 8f52 87bd 2252 a13c bb08 543d 673c 3cbe
00000170: d92d 123d d527 84bd 207e c9bc a648 e73c
00000180: e5de 14be 2d8e 4cbd c9a4 f0bd ba50 bebd
00000190: 17cb 4abe 2a97 9fbd 4aa1 8d3d fd5b 74bc
000001a0: 1523 d13d bc51 88bd 18fa f53c 83d6 833d
000001b0: d8d2 c5bd d562 b3bd 3007 e3bd dd52 953c
000001c0: 69f8 0b3b 9ed8 373e e530 e13b adf9 83b9
000001d0: 0037 7d3a 3099 84be c820 9fbc 2e29 343d
000001e0: 824a 00bb 97c4 063c 1bdc 363e 160c 88be
000001f0: 0fed 263d 8ece f4bd a879 b33c af90 90bc
00000200: 2233 7cbd 3758 be3c 8ec2 14bc 10df 063d
00000210: c39b 51bd a3f9 83bc 00bc 053d 2d18 debd
00000220: ccce 76bc 10f8 97bc c6a8 67bd f90b 75bb
00000230: 790f 633d 66a1 073a 70e4 9bbd 8804 9abd
00000240: de33 bb3d acd4 06be aa73 97bd 1d20 c6bd
00000250: 1147 65bd 8306 c9ba bc26 0ebe 39d5 75bd
00000260: ccb4 87bd 94f6 aabd 17c6 38be 6d98 863c
00000270: aaa5 f03d eeb3 f7bc fa77 20be 00cf bbbd
00000280: 02d8 b03d ebb3 a03d 311b e2bc eec0 05be
00000290: d358 28bc 86f8 11bd 07ca 96bd ed01 cd3d
000002a0: bfef 20bd fbe5 4dbe 4866 02be 85a6 b2bc
000002b0: c91f 46bd f8bd a2bb 1614 84bc d128 d73d
000002c0: 2ad7 e63d 46ed a13c 9648 8f3c a559 1d3b
000002d0: 5dcc a23d f2ef a43c ec7e c9bd d369 8dbb
000002e0: affd 38be abd1 3ebd a364 e73c 619f 12bd
000002f0: a0ef 11bc 06f3 5c3c bed7 2dbc 978e 363d
00000300: 6962 29bd c12f 8fbd 5249 84bd 4191 283d
00000310: 0a80 4fbe e3e7 95be 4ee3 143c 135b 8e3d
00000320: f0fc cf3c 8b79 b9bd 5553 8bbc 8689 5abe
00000330: 1d7d 3d3d 1e09 1abd 9001 64be 240d 92be
00000340: 1b82 21bc 9794 a03b bb52 ff3d eb87 ffbc
00000350: 50d4 f0bc 9c74 533d 5a23 5e3c 2c6b efbd
00000360: abb3 f4bc 8812 1cbd a6aa e0bd 5645 0c3d
00000370: 88b4 bcbd bd9c 46bd 9dba ab3c 099c 2dbe
00000380: 7399 b13d f215 07bd e12c c23d 10dd 2fbe
00000390: 3c7f 0bbe 73f1 53be 659b c939 1134 9f3d
000003a0: 5e23 863b 0542 053e dae6 d2bc 0d19 e93d
000003b0: 2aed bdbb 6dce 8bbe b293 45be bbed c53c
000003c0: 77c3 d23c d5bd bebd d201 42bd 0efd a0bc
000003d0: b049 de3d 851d 0fbe 37f0 f53c 8500 34bd
000003e0: 780d b4bd b0c6 a3bd 1aa1 fe3d 7c02 2e3c
000003f0: ebf1 3cbe 956f 203d 0a50 47bd ea3f 1bbe
