pth/mymodel.pth (torch, 503029 bytes, 16 tensors)

conv1.0.weight f4 [6, 3, 3, 3]
0	0x3ee8300c	0.45349157
1	0x3f9de6b9	1.2336036
2	0x3f0c63d8	0.5483985
3	0xbf3d639a	-0.73980105
4	0xbd35ac3d	-0.044353712
5	0xbcf791d9	-0.030220913
6	0xbe99c6ae	-0.30034393
7	0xbf66951c	-0.9007127
8	0xbe80c204	-0.25148022
9	0x3f039914	0.51405454
10	0x3fa5f9da	1.2966874
11	0x3f4f2db6	0.80929124
12	0xbf255b8c	-0.64592814
13	0xbec58168	-0.38575292
14	0xbce971bb	-0.028496614
15	0xbeffd4de	-0.49967092
16	0xbfa3af02	-1.2787783
17	0xbf3e9abe	-0.7445487
18	0x3e1fc7f3	0.15603618
19	0x3f9444b1	1.1583463
20	0x3eb2fe7d	0.34959784
21	0xbed763ae	-0.42068237
22	0x3eaf0c59	0.34189108
23	0x3f00c408	0.5029912
24	0xbe21ff6d	-0.15820093
25	0xbf4e1347	-0.80498165
26	0x3baca28c	0.0052684005
27	0xbed79eff	-0.42113492
28	0x3c9c8a06	0.019108783
29	0x3ddb98a4	0.10722473
30	0xbf7dd0e0	-0.9914684
31	0x3f1c80e3	0.61134166
32	0x3f1969b0	0.5992689
33	0xbf92c305	-1.1465765
34	0x3f48c317	0.78422683
35	0x3eb5b09b	0.35486302
36	0xbbd60621	-0.0065314923
37	0x3f19e164	0.60109544
38	0x3f33c856	0.70227563
39	0xbecbe257	-0.3982112
40	0x3fa372df	1.2769431
41	0x3f889eb9	1.0673438
42	0xbeb5552a	-0.35416538
43	0x3fae2d7e	1.3607633
44	0x3f91fb15	1.1404749
45	0xbf661ada	-0.8988472
46	0xbeadca83	-0.33943567
47	0xbe5d4d68	-0.2161156
48	0xbfb08c78	-1.3792868
49	0xbea19c61	-0.3156462
50	0xbe597018	-0.21234167
51	0xbfdd1f61	-1.7275201
52	0xbe0e658c	-0.13905925
53	0xbda61d98	-0.08111113
54	0xbecc5fb6	-0.39916772
55	0x3dae01c1	0.08496428
56	0x3c44fffd	0.012023923
57	0x3eeea01a	0.46606523
58	0x3ec6c1dc	0.38819778
59	0x3ec95a56	0.39326733
60	0x3f2151cc	0.6301544
61	0x3f1f1a3b	0.621494
62	0x3f05252e	0.52009857
63	0xbe930730	-0.2871642
64	0xbe1b9ea1	-0.15197231
65	0xbf05379f	-0.52037996
66	0x3daedb7e	0.085379586
67	0x3e62379f	0.2209153
68	0x3cc3cf83	0.02390266
69	0xbea97bfc	-0.33102405
70	0xbdf643dc	-0.12024662
71	0xbe10a7dc	-0.14126533
72	0x3f2c40e4	0.67286515
73	0x3f146e7f	0.57981104
74	0x3e3571ac	0.17719144
75	0x3f12f198	0.5739989
76	0x3f274521	0.6533986
77	0x3ebdc43c	0.37063777
78	0x3e498e62	0.19683221
79	0x3e05cf3e	0.13067338
80	0xbee1f89a	-0.4413498
81	0xbee9090d	-0.45514718
82	0xbfdbb3e9	-1.7164279
83	0xbef253ec	-0.47329652
84	0xbe62ac7e	-0.22136113
85	0x3dc7e0c7	0.0975967
86	0xb94fa522	-0.00019802575
87	0x3f1c8c4d	0.6115158
88	0x3fa94504	1.3224187
89	0x3ead46df	0.33843133
90	0xbe60ebaf	-0.21964906
91	0xbfbe6c02	-1.4876711
92	0xbde91524	-0.113809854
93	0x3d3ac00a	0.0455933
94	0x3ec4844f	0.38382193
95	0x3e9cf4fb	0.30655655
96	0x3f4ff5e1	0.81234556
97	0x3fef1387	1.8677834
98	0x3f0ebe3a	0.5575901
99	0xbeb11c2b	-0.34591803
100	0xbfbd511e	-1.479038
101	0xbe3ab543	-0.18233208
102	0xbe1b19ff	-0.15146635
103	0xbec663ee	-0.38748115
104	0xbee01cbf	-0.43771932
105	0x3eadb034	0.33923495
106	0x3f69a579	0.91268116
107	0xbd087cdd	-0.033322204
108	0xbec2da85	-0.38057342
109	0xbf086c94	-0.5329068
110	0xbf46d324	-0.77665925
111	0xbf0896a1	-0.5335484
112	0xbfa80490	-1.3126392
113	0xbfaaa077	-1.333022
114	0xbefc73de	-0.4930715
115	0xbf404bf7	-0.75115913
116	0xbeae5eaa	-0.34056598
117	0x3eba54ff	0.36392972
118	0x3f0fc701	0.5616303
119	0xbdd22a30	-0.10261953
120	0x3ee245f3	0.44193992
121	0xbe956fcf	-0.29186866
122	0xbf214a94	-0.6300442
123	0xbeac4563	-0.33646688
124	0xbea0a529	-0.31376007
125	0xbeb2a077	-0.3488805
126	0x3f962ec2	1.1733019
127	0x3facccdd	1.3500019
128	0x3f2bd4e4	0.6712172
129	0x3f9e3b16	1.2361782
130	0x3f7d2cf0	0.98896694
131	0x3ef157f3	0.47137412
132	0x3e7a32c0	0.24433422
133	0x3f0aa53a	0.54158366
134	0x3ec27df4	0.3798672
135	0x3f89388a	1.0720379
136	0x3fc254fd	1.5182186
137	0x3f9c872d	1.2228752
138	0x3f3a7c94	0.7284634
139	0x3fb0e972	1.3821242
140	0x3fa24585	1.2677466
141	0x3d03f496	0.032215677
142	0x3f0d7ccc	0.5526855
143	0x3e4b7e8b	0.19872491
144	0xbf907b7c	-1.1287684
145	0xbfaf3af5	-1.3689867
146	0xbf97833d	-1.1836926
147	0xbf74b0bf	-0.95582193
148	0xbfa84893	-1.3147148
149	0xbf900609	-1.1251842
150	0xbf3e0569	-0.74227005
151	0xbf4573a8	-0.771296
152	0xbf4207b7	-0.7579302
153	0x3ddacc06	0.10683446
154	0xbdc1b7bf	-0.09458875
155	0xbe1cecea	-0.1532475
156	0xbd6c8eff	-0.05775356
157	0xbe9e2e51	-0.30894712
158	0xbe3f124c	-0.18659323
159	0x3e8f13a5	0.27944675
160	0xbd133bdc	-0.03594576
161	0x3e065332	0.13117674

conv1.0.bias f4 [6]
0	0x3e495756	0.19662222
1	0x3e4e72ac	0.20160931
2	0xbf997f73	-1.199202
3	0x3e6c711e	0.23090026
4	0x3eee6866	0.46564025
5	0x3f35e36b	0.7105014

conv2.0.weight f4 [16, 6, 3, 3]
0	0xbf33c3ac	-0.70220447
1	0x3e6c366c	0.23067635
2	0x3f1559f7	0.583404
3	0x3f74484e	0.9542283
4	0xc00acd10	-2.168766
5	0x3f832b63	1.0247616
6	0x3e573db8	0.21019638
7	0x3ec2de7d	0.3806037
8	0xbf1a8f77	-0.6037516
9	0xbed85796	-0.42254323
10	0xbf235ac3	-0.63810366
11	0x3f77e9e4	0.96841264
12	0x3f66a41c	0.9009416
13	0xbf95a3cf	-1.1690615
14	0x3eb39c34	0.3508011
15	0xbeb0abb3	-0.34505996
16	0x3e8b72a2	0.27235895
17	0xbf018865	-0.50598747
18	0x3f2c5d2a	0.6732966
19	0xbfb2925a	-1.3950913
20	0xbe94ef9b	-0.29089054
21	0x3f0f20df	0.5590953
22	0x3ed1e36c	0.40993822
23	0xbf7dcf53	-0.99144477
24	0x3d29ba05	0.041437168
25	0x3f3e2a18	0.7428298
26	0x3cb98cce	0.022650149
27	0x3f110dbb	0.56661576
28	0x3f0ce57b	0.5503766
29	0xbf86ffe1	-1.0546838
30	0xbfaaab27	-1.3333482
31	0x3fed7af1	1.8553144
32	0xbf29ae21	-0.66281325
33	0xbecd9d2a	-0.4015897
34	0xbe81fe81	-0.25389484
35	0x3f2b7eea	0.6699053
36	0x3ebd8b57	0.3702037
37	0xbf46e7de	-0.7769755
38	0x3eaca20a	0.33717376
39	0x3de22901	0.11042977
40	0xbe10b62e	-0.14131996
41	0xbe362ab9	-0.17789735
42	0x3ed030ab	0.4066213
43	0xbd8a8c97	-0.06765097
44	0xbe8cb26c	-0.27479875
45	0xbeae358c	-0.34025228
46	0x3e15cf6d	0.14629908
47	0x3e0ca674	0.13735372
48	0x3c25d069	0.01012049
49	0xbe317fb8	-0.17333877
50	0x3e34effa	0.17669669
51	0x3d180b6a	0.03712026
52	0x3e26a6ff	0.16274641
53	0xbe22289e	-0.15835807
54	0x3eb24cc8	0.34824204
55	0x3e4dfa35	0.20114978
56	0x3e4b580c	0.19857806
57	0xbdf30154	-0.11865488
58	0x3deaa400	0.11457062
59	0xbf129935	-0.57265025
60	0xbe8b0a40	-0.27156258
61	0x3eb0ac69	0.3450654
62	0xbea7d8b6	-0.32782525
63	0x3d9ae709	0.07563598
64	0x3df631d3	0.12021222
65	0xbeec3849	-0.46136692
66	0xbdf4fa97	-0.11961859
67	0x3f5f1f1d	0.8715685
68	0xbeb03945	-0.34418693
69	0xbd6ed24a	-0.058306016
70	0x3f542362	0.8286649
71	0xbf1c271a	-0.60997164
72	0xbf188c18	-0.59588766
73	0xbdacb087	-0.084321074
74	0x3e9eeb5a	0.31038934
75	0xbea299af	-0.31757876
76	0xbeda73b6	-0.42666405
77	0x3e435931	0.19076993
78	0x3d92a1ec	0.071597904
79	0xbe4fb54a	-0.20284
80	0x3f07056b	0.5274264
81	0xbefb30d2	-0.49060684
82	0xbe7f0d55	-0.2490743
83	0x3f0d12e6	0.5510696
84	0x3e236a37	0.15958486
85	0xbf91efe9	-1.140134
86	0x3e1d87d9	0.15383853
87	0x3cc01e0b	0.023451826
88	0xbf462c85	-0.7741168
89	0x3df5d048	0.12002617
90	0x3ea0ee68	0.3143189
91	0xbeb34edf	-0.3502111
92	0xbe69ec19	-0.2284397
93	0x3f2d89f9	0.67788655
94	0xbe876af5	-0.2644879
95	0x3d879e13	0.06621947
96	0x3f59d413	0.85089225
97	0xbe8bda65	-0.2731506
98	0x3e8772d0	0.26454782
99	0x3f29b6ff	0.66294855
100	0x3dc21cd4	0.09478155
101	0xbf0db9b7	-0.55361503
102	0x3f60e74d	0.87852937
103	0x3ef01e3c	0.46898067
104	0xbf2745fa	-0.6534115
105	0x3f40557f	0.75130457
106	0x3ebfdef5	0.3747479
107	0xbf46539a	-0.77471316
108	0x3e808258	0.25099444
109	0x3d429d5a	0.047513343
110	0x3da59917	0.0808584
111	0xbd8b516e	-0.06802641
112	0x3e85cc7e	0.26132578
113	0xbe114831	-0.14187695
114	0xbe4e64c7	-0.20155631
115	0x3ee08933	0.43854675
116	0x3f1a2535	0.60213023
117	0xbe23d9e8	-0.16001093
118	0xbf28e1b9	-0.65969425
119	0xbf0f7c04	-0.5604861
120	0xbe8828e8	-0.2659371
121	0xbe60b7ff	-0.21945189
122	0xbce3a9b0	-0.027790874
123	0x3ef2d22d	0.47425976
124	0x3d7404a7	0.05957475
125	0x3ead3874	0.33832133
126	0xbcaa8998	-0.020817563
127	0xbeaafd9c	-0.33396614
128	0xbabd5550	-0.0014444981
129	0xbddc9555	-0.1077067
130	0xbe4efc95	-0.2021354
131	0xbcabe1c3	-0.020981675
132	0xbe0a7962	-0.13522866
133	0xbe68767a	-0.22701445
134	0x3e823379	0.25429896
135	0x3f1f99d1	0.6234408
136	0xbdf93c95	-0.12169758
137	0xbc9e5288	-0.019326463
138	0xbe066889	-0.13125814
139	0xbeced616	-0.4039771
140	0xbebcb500	-0.36856842
141	0xbef56c6d	-0.47934285
142	0xbea2fee3	-0.31835088
143	0xbe9efccf	-0.31052253
144	0x3ee606c7	0.44927046
145	0x3f1dde22	0.6166707
146	0xbe9b2d25	-0.3030788
147	0x3f32f5d7	0.6990637
148	0x3f5f6f84	0.87279534
149	0xbc9ca112	-0.019119773
150	0xbd977ba9	-0.07396633
151	0x3e8b6464	0.2722503
152	0xbd849a3a	-0.06474729
153	0xbe33b4cc	-0.17549437
154	0xbeb0368f	-0.34416625
155	0xbcb60090	-0.022217065
156	0xbdb2a30d	-0.08722506
157	0xbf0ed93e	-0.55800235
158	0x3c9d1db9	0.019179212
159	0x3dfed436	0.1244282
160	0xbda341ae	-0.07971512
161	0xbde02c7b	-0.10945984
162	0x3d2a7ab6	0.041620933
163	0x3e456a00	0.19278717
164	0x3ee2bbc4	0.4428388
165	0xbe5ae13c	-0.21374983
166	0xbecccd77	-0.40000507
167	0xbe00f431	-0.12593152
168	0xbe518e21	-0.20464374
169	0xbe9fb786	-0.31194705
170	0x3c8f505b	0.017494371
171	0xbe204b17	-0.15653645
172	0xbf0ffecc	-0.56248164
173	0xbed81ecc	-0.42210996
174	0xbe97e8fd	-0.29669943
175	0xbf365e41	-0.7123757
176	0xbee341c3	-0.4438611
177	0x3f006d8c	0.50167155
178	0x3ef95441	0.48697093
179	0x3e131a4a	0.14365497
180	0xbdad0a99	-0.08449287
181	0xbe902e04	-0.28160107
182	0xbd98795f	-0.07445025
183	0x3ec30698	0.38090968
184	0x3e16334b	0.14668004
185	0x3e498cbb	0.1968259
186	0x3e0d0d9c	0.13774723
187	0xbdbf8e6c	-0.09353337
188	0xbca5a450	-0.020219952
189	0xbebe2e77	-0.37144825
190	0xbe36f6e0	-0.17867613
191	0x3dd0625f	0.10175013
192	0x3e448b37	0.19193731
193	0xbd298698	-0.041388124
194	0xbedb9729	-0.42888764
195	0x3f1e935b	0.61943597
196	0x3f001715	0.5003522
197	0x3ebaa91d	0.36457148
198	0x3e9d6dcf	0.3074784
199	0x3f08feb0	0.5351362
200	0x3f07ad14	0.5299847
201	0x3ede72a4	0.4344684
202	0x3e157201	0.1459427
203	0x3c919342	0.017770413
204	0xbecc8941	-0.39948466
205	0xbf389e32	-0.72116387
206	0xbf296497	-0.6616911
207	0xbf1bec8b	-0.6090781
208	0xbf850cd1	-1.0394536
209	0xbf6993b9	-0.9124103
210	0xbdb40cef	-0.087915294
211	0x3cb4b0aa	0.022056896
212	0x3db8f1fa	0.09030528
213	0x3f61b347	0.8816418
214	0x3f91290b	1.134065
215	0x3f92fb84	1.1483006
216	0x3ef0b2ed	0.4701151
217	0x3e8afb78	0.2714498
218	0xbf02c3c4	-0.51079965
219	0x3c2f7dcb	0.010711144
220	0x3e1b44ad	0.15162916
221	0xbdbed6c3	-0.09318306
222	0xbe449e81	-0.1920109
223	0x3da51bbb	0.0806193
224	0xbe9fffc2	-0.31249815
225	0x3e0a68e2	0.13516572
226	0xbede99e7	-0.43476793
227	0xbebe978f	-0.37225005
228	0x3ec2e667	0.38066408
229	0x3e0efecf	0.1396439
230	0xbe73ec95	-0.23820718
231	0x3eaddc79	0.3395727
232	0x3db4cbed	0.08827958
233	0xbe1afc6c	-0.15135354
234	0xbe8a3479	-0.26993158
235	0x3f393786	0.7235035
236	0x3f01b2a8	0.5066323
237	0xbe7c857a	-0.24660292
238	0x3ecf313f	0.4046726
239	0x3eae1456	0.3399989
240	0xbdfb5f85	-0.12274078
241	0x3eb83070	0.35974455
242	0x3cf36585	0.029711494
243	0xbe92127c	-0.28529727
244	0x3daf0d10	0.08547413
245	0x3f0caf9c	0.5495546
246	0xbf03ca42	-0.51480496
247	0xbf34bd61	-0.7060147
248	0xbd510d72	-0.051038213
249	0x3e6d3786	0.23165712
250	0xbdcd49d9	-0.10023851
251	0x3e088db4	0.13335305
252	0x3d7b5967	0.061364558
253	0x3f1b388f	0.60633177
254	0x3cc66e1f	0.024222432
255	0xbe1082fb	-0.14112465

conv2.0.bias f4 [16]
0	0x3ad1648b	0.0015975399
1	0xbf0b063b	-0.5430638
2	0x3f6f1553	0.93391913
3	0xbea86fd7	-0.32897827
4	0xbf8f9793	-1.1218132
5	0xbeb7c3f2	-0.35891682
6	0xbf490e29	-0.7853723
7	0x3d0bf0a6	0.034165047
8	0xbf149741	-0.58043295
9	0x3f27b217	0.6550612
10	0xbef9bea1	-0.4877825
11	0xbecd1cfc	-0.40061176
12	0x3e6ade53	0.22936372
13	0xbc921d24	-0.017836161
14	0xbe64c2e6	-0.22339973
15	0xbf7217ff	-0.94567865

conv3.0.weight f4 [32, 16, 3, 3]
0	0xbe7d7765	-0.24752577
1	0x3b7295f4	0.0037015649
2	0x3d71c60c	0.059026763
3	0xbe34a17b	-0.17639725
4	0xbe47fbbf	-0.19529627
5	0x3b9cdffd	0.0047874437
6	0xbe54d0be	-0.20782754
7	0xbea45b1f	-0.3210077
8	0x3e282c4c	0.16423148
9	0xbda24d4e	-0.07924901
10	0xbbae4f84	-0.0053195376
11	0xbe88bf22	-0.26708323
12	0xbdaa83be	-0.08325909
13	0x3d0c72f7	0.034289327
14	0xbe5032b9	-0.20331849
15	0x3d415c24	0.047207013
16	0x3e876bdf	0.26449487
17	0x3de90e2c	0.11379656
18	0xbe4fc19d	-0.20288701
19	0x3e7d5ee2	0.24743226
20	0xbe3a6bd2	-0.18205193
21	0x3e814791	0.25249913
22	0x3efe51f9	0.49671915
23	0xbeafe76f	-0.34356257
24	0x3ea3cf9e	0.31994337
25	0x3e83b3a3	0.2572299
26	0xbe95a86d	-0.2923006
27	0x3c7e3af9	0.01551699
28	0x3d893745	0.06699995
29	0x3e052576	0.13002571
30	0xbe12af03	-0.14324574
31	0x3ed11362	0.408351
32	0xbd70e5d9	-0.05881295
33	0xbe485dd8	-0.19567049
34	0x3e89ddda	0.26927072
35	0xbe377373	-0.17915134
36	0x3d4e3ba1	0.050349835
37	0x3e9b95c1	0.3038769
38	0xbe9f4cf7	-0.31113407
39	0x3e7f197a	0.24912062
40	0x3e831ff4	0.25610316
41	0xbf2661e1	-0.649931
42	0xbd015969	-0.03157941
43	0xbe8b110d	-0.27161446
44	0xbef59bcd	-0.4797043
45	0xbe680363	-0.22657542
46	0xbe8f1c69	-0.27951363
47	0x3eb36a6c	0.3504213
48	0xbe04b2ec	-0.12958878
49	0x3eb2bfa6	0.3491184
50	0x3e630a91	0.22172
51	0x3e5f1509	0.21785368
52	0x3dbdc349	0.09265763
53	0xbd74bc2f	-0.05974978
54	0xbc4d5260	-0.012531847
55	0xbe7f5dae	-0.2493808
56	0xbe9fc428	-0.31204343
57	0x3e4cf311	0.20014597
58	0xbe6766db	-0.2259783
59	0xbd1e7ff4	-0.038696244
60	0x3e4c91f6	0.19977555
61	0xbe2489c4	-0.16068178
62	0x3cc2dc9e	0.02378684
63	0xbd143842	-0.036186464
64	0xbc0c1122	-0.008549007
65	0xbb857657	-0.004072945
66	0x3d10c0da	0.035340168
67	0xbc97b19f	-0.018517314
68	0x3da4ef43	0.08053448
69	0x3d2cfc4e	0.042232804
70	0xba817a41	-0.0009878353
71	0xbd975854	-0.07389894
72	0xbe1b8bee	-0.15190098
73	0x3d71e6e5	0.05905809
74	0x3e30a853	0.1725171
75	0x3e885198	0.2662475
76	0xbd2b0143	-0.04174925
77	0xbe37e06d	-0.17956705
78	0xbd953999	-0.072863765
79	0xbe8f6f0a	-0.28014404
80	0xbd429a80	-0.047510624
81	0x3e5452f1	0.20734765
82	0x3cd6bbca	0.026212592
83	0xbe95b182	-0.2923699
84	0x3f03a1f3	0.5141899
85	0xbe830d43	-0.25596055
86	0xbef3c470	-0.47610807
87	0xbda52460	-0.080635786
88	0xbe3590fa	-0.17731085
89	0xbdf2428f	-0.11829101
90	0xbe698218	-0.22803533
91	0x3e897bc3	0.26852235
92	0xbe948e83	-0.29014978
93	0xbcf55e76	-0.029952269
94	0xbcac2dc8	-0.021017924
95	0x3cfe650e	0.031054046
96	0x3ea5eb7d	0.32406226
97	0xbe445120	-0.19171572
98	0xbde21041	-0.110382564
99	0xbdfa038d	-0.122077085
100	0x3caa1e3b	0.020766368
101	0xbcb2c5df	-0.021822868
102	0xbe4dc7ed	-0.20095797
103	0xbe9c4ad8	-0.3052585
104	0xbadd2955	-0.001687328
105	0xbe4ae5eb	-0.19814269
106	0xbdde6cf0	-0.10860622
107	0xbd9129ec	-0.07088074
108	0x3e2e2377	0.17005716
109	0xbde80a03	-0.113300346
110	0x3ec9d4cd	0.39420167
111	0xbe73278d	-0.23745556
112	0x3f422c22	0.7584859
113	0x3eea6c4e	0.45785755
114	0x3e9ef696	0.31047505
115	0x3e891afa	0.26778394
116	0x3da396ad	0.079877235
117	0xbecb661b	-0.39726338
118	0xbe860da4	-0.26182282
119	0x3d9dd5c4	0.07706788
120	0xbd870b2c	-0.06593928
121	0xbe399d5e	-0.18126437
122	0xbcc0ad46	-0.023520123
123	0x3b3cf1fe	0.0028830762
124	0xbbad658e	-0.0052916473
125	0xbe1ca8c2	-0.15298751
126	0x3d3b365c	0.045706138
127	0xbcc5c770	-0.02414295
128	0xbe696470	-0.2279222
129	0x3bac2645	0.0052535855
130	0xbe8ce226	-0.27516288
131	0xbe2a9225	-0.16657312
132	0xbde1097e	-0.109881386
133	0xbd02948b	-0.031879943
134	0x3e5cb88c	0.21554774
135	0x3e246ac9	0.1605636
136	0x3e7e02f8	0.2480582
137	0xbe6555f3	-0.22396068
138	0x3ee8e7df	0.45489404
139	0xbe427c95	-0.18992837
140	0xbedbd9ef	-0.42939708
141	0x3dce12db	0.1006219
142	0xbeac0c18	-0.33602977
143	0x3db25662	0.087078825
144	0xbe3ca325	-0.1842161
145	0xbec821dd	-0.39088336
146	0xbeb03f11	-0.34423116
147	0xbdfd9c88	-0.123833716
148	0xbe206a5f	-0.15665577
149	0xbe741eb4	-0.23839837
150	0x3d02d046	0.031936906
151	0xbdbb2e01	-0.09139634
152	0xbd79e8cc	-0.061013028
153	0xbe117903	-0.14206319
154	0x3dcb3041	0.09921313
155	0x3daec938	0.08534473
156	0xbcd4bd73	-0.025969243
157	0x3dcbe5d4	0.099559456
158	0xbde7d0a9	-0.11319096
159	0xbd6a0092	-0.05712945
160	0x3c7b8b31	0.01535301
161	0xbdca9e92	-0.09893526
162	0x3e5593ad	0.20857115
163	0xbe235b15	-0.15952714
164	0x3e26d7af	0.16293214
165	0xbe7f8e3b	-0.249566
166	0xbe057052	-0.13031128
167	0x3f1237ea	0.5711657
168	0xbed57041	-0.41687205
169	0x3ebf78fb	0.37396988
170	0x3dd1fea0	0.10253644
171	0xbe2e1b78	-0.17002666
172	0x3e9b6224	0.30348313
173	0xbd401f6e	-0.046904974
174	0x3d85c1f9	0.06531138
175	0xbe6c91f6	-0.23102555
176	0xbd07a35b	-0.033114772
177	0xbef93d2c	-0.48679483
178	0xbd88b1f1	-0.06674565
179	0x3ded0c97	0.11574667
180	0xbe10c95d	-0.14139314
181	0x3b85706d	0.00407224
182	0x3e107768	0.1410805
183	0xbef909cb	-0.48640284
184	0xbc59a2da	-0.013283456
185	0x3dadbe6f	0.08483588
186	0xbe03dff2	-0.12878397
187	0x3e3be702	0.18349841
188	0xbdd165d9	-0.10224504
189	0x3e063506	0.13106164
190	0x3f11073e	0.56651676
191	0x3da56942	0.08076717
192	0x3f68cb17	0.9093489
193	0xbdb9b339	-0.09067387
194	0xbe824b6d	-0.2544817
195	0xbdb88fd8	-0.09011811
196	0xbe7ac2fc	-0.24488443
197	0xbf01ff2c	-0.50779986
198	0xbde38601	-0.111095436
199	0xbda52baf	-0.080649726
200	0x3d41cfad	0.047317196
201	0x3c9b56ed	0.018962348
202	0x3e16b52f	0.14717554
203	0xbe45111b	-0.19244806
204	0x3dce33ff	0.10068511
205	0xbef1f8a0	-0.47259998
206	0xbe4e5c8b	-0.2015249
207	0xbc93dd65	-0.018049905
208	0xbbf93ca5	-0.0076061063
209	0xbd836450	-0.064156175
210	0xbd8bfca9	-0.068353005
211	0xbc97d610	-0.01853469
212	0xbd0ecc33	-0.03486271
213	0xbbcf8312	-0.0063327635
214	0xbd9be49d	-0.07611964
215	0x3d8ba4ee	0.06818567
216	0x3ebfd82f	0.37469622
217	0xbe236a0f	-0.15958427
218	0xbd77c3d0	-0.060489476
219	0xbe6d1047	-0.2315074
220	0x3f13aa2d	0.5768154
221	0x3d5869cb	0.052835267
222	0x3e63e27e	0.22254369
223	0xbe87f5a5	-0.265546
224	0xbebb3751	-0.3656564
225	0xbdeb989a	-0.11503716
226	0xbe58626b	-0.21131293
227	0xbe1ec463	-0.15504603
228	0xbefd06cb	-0.49419245
229	0x3d7737bd	0.06035589
230	0xbbb2f89f	-0.005461767
231	0x3e2818a4	0.1641565
232	0x3e2e40c7	0.17016898
233	0xbde0d417	-0.10977953
234	0x3c954e29	0.018225746
235	0xbeb84da7	-0.35996744
236	0xbd0608aa	-0.032723106
237	0xbef326b8	-0.47490478
238	0x3e83e86e	0.25763267
239	0x3dbba1b8	0.09161705
240	0xbdbb9e07	-0.09161001
241	0x3eb2266e	0.34794945
242	0x3dd03f49	0.10168321
243	0xbdf4f231	-0.11960257
244	0x3ebe0166	0.37110442
245	0xbd5ba6eb	-0.053625982
246	0x3e900920	0.28131962
247	0xbe5f78fa	-0.21823493
248	0xbe4d1515	-0.20027573
249	0xbda79075	-0.0818185
250	0xbe3962b7	-0.18104063
251	0x3daa66ba	0.08320375
252	0x3d45a8fe	0.048256867
253	0x3f04841c	0.5176408
254	0x3e2f4f40	0.17120075
255	0x3f4750ac	0.7785747

conv3.0.bias f4 [32]
0	0x3ec7fec0	0.39061546
1	0xbf188328	-0.5957513
2	0x3eaaeaa3	0.3338214
3	0x3eea5ad1	0.45772412
4	0x3f2c24e9	0.6724382
5	0xbd26ced7	-0.0407246
6	0xbef53b68	-0.47896886
7	0x3f9c419f	1.2207526
8	0x3bb2df9b	0.0054587848
9	0x3f8acceb	1.0843786
10	0x3e77ca12	0.24198177
11	0xbe2790de	-0.16363856
12	0xbf267a82	-0.6503068
13	0x3d81a11f	0.063295595
14	0x3e1dc0c5	0.15405567
15	0xbecafb7c	-0.39644992
16	0xbe722648	-0.23647416
17	0x3f565a84	0.83731866
18	0xbe96d7a2	-0.2946139
19	0xbee1033d	-0.43947783
20	0xbed41cd0	-0.41428232
21	0x3f7d9fbe	0.9907187
22	0xbec85cbe	-0.39133257
23	0xbf5134a8	-0.8172097
24	0xbeefc25a	-0.46827966
25	0x3e66fd1c	0.22557491
26	0xbf756d30	-0.9586973
27	0xbe1397c6	-0.14413366
28	0x3d334820	0.043769956
29	0xbd66eaeb	-0.05637638
30	0xbc939256	-0.018014114
31	0xbfa1d589	-1.2643291

conv4.0.weight f4 [64, 32, 3, 3]
0	0xbe3c805c	-0.1840834
1	0xbcc9ee0c	-0.024649642
2	0x3c427043	0.011867586
3	0xbb5c36f4	-0.003360209
4	0xbe103bdb	-0.14085333
5	0x3d33cec8	0.043898374
6	0x3e96fa85	0.29488006
7	0xbdac5650	-0.084149
8	0x3e9904bd	0.29886428
9	0xbd204fd8	-0.039138645
10	0xbd2d2faa	-0.042281784
11	0xbe6edbee	-0.23326084
12	0xbe96b675	-0.2943608
13	0xbd8a5af5	-0.0675563
14	0xbe92aaa9	-0.28645828
15	0xbe577cbd	-0.21043678
16	0x3d64cb21	0.05585778
17	0x3d8fa536	0.07013933
18	0xbe2a1f51	-0.16613509
19	0xbe0224e8	-0.12709391
20	0x3da7a381	0.08185483
21	0x3e00d55b	0.12581389
22	0x3dab0622	0.08350779
23	0x3e23ee16	0.16008791
24	0x3d9036c5	0.070416965
25	0xbe1d4159	-0.1535696
26	0xbdceecc2	-0.10103752
27	0xbd93c0fc	-0.07214543
28	0x3e55d0a2	0.20880368
29	0x3e88b99f	0.26704118
30	0x3caebc50	0.021330029
31	0xbe1446f1	-0.14480187
32	0xbe4f677d	-0.20254321
33	0xbc8d4316	-0.017243903
34	0xbe27066c	-0.16311044
35	0x3aeb0317	0.0017929998
36	0x3cc57a7f	0.024106262
37	0xbd06ed52	-0.03294117
38	0x3e33a684	0.1754399
39	0x3aa4aafa	0.0012563162
40	0xbdafefd6	-0.08590667
41	0x3b3502bc	0.0027620038
42	0x3c5694ac	0.01309697
43	0x3e5bb286	0.2145482
44	0x3e1d7ef8	0.15380466
45	0xbdf8d3bf	-0.12149762
46	0xbdd5ee80	-0.10445881
47	0xbe334a1c	-0.17508739
48	0xbdac0c3f	-0.08400773
49	0x3da40a43	0.0800977
50	0x3e1c30c4	0.15252978
51	0x3e0bc0ee	0.13647816
52	0x3e302274	0.17200643
53	0x3d9c4da7	0.076319985
54	0xbcf72ac2	-0.030171756
55	0xbe794f70	-0.24346709
56	0x3e1e0992	0.15433338
57	0x3e3affbb	0.18261616
58	0x3dcad50a	0.09903915
59	0xbd9c0b03	-0.07619288
60	0xba8014c5	-0.0009771815
61	0x3d2f49be	0.042794935
62	0x3e28e826	0.16494808
63	0xbda94c82	-0.08266546
64	0xbe018f08	-0.12652218
65	0xbdcc5483	-0.09977057
66	0x3d4a95b8	0.04945919
67	0x3e0bcc0c	0.13652056
68	0x3e8cfa72	0.27534825
69	0xbcd465de	-0.02592748
70	0xbe19c9e9	-0.15018429
71	0x3ddb3e39	0.107052274
72	0xbd139c6b	-0.036037844
73	0x3d70692d	0.058694053
74	0xbe0e1e50	-0.13878751
75	0x3d483942	0.04888273
76	0xbd87e806	-0.06636052
77	0xbe8660d0	-0.26245737
78	0x3e4e7aa7	0.20163976
79	0x3e1e4c3b	0.15458767
80	0xbdc09885	-0.09404091
81	0x3da3ca43	0.07997563
82	0x3d20973e	0.039206736
83	0xbd478153	-0.048707318
84	0x3ce02757	0.027362509
85	0x3d57ff65	0.052733798
86	0x3db06ef1	0.086149104
87	0x3dd7a407	0.105293326
88	0xbd885989	-0.066577025
89	0xbd87b673	-0.06626596
90	0xbd37bafd	-0.04485606
91	0xbd0b7249	-0.034044538
92	0x3cb62129	0.022232609
93	0x3b9fa344	0.0048717577
94	0x3b53925e	0.0032283287
95	0x3e3c5321	0.18391086
96	0xbce1807f	-0.027527092
97	0xbb7998cc	-0.0038085459
98	0x3c78e16b	0.015190463
99	0x3db25c2a	0.08708985
100	0x3e45ca62	0.19315484
101	0x3dcf274b	0.101149164
102	0x3df0a670	0.117504954
103	0x3e6cb3fd	0.23115535
104	0x3db0ee9e	0.086392626
105	0xbbe0b318	-0.006857287
106	0xbd96b93a	-0.07359548
107	0xbdaa5d09	-0.08318526
108	0x3cc708eb	0.024296245
109	0xbe13287c	-0.14370912
110	0x3e24a1ae	0.16077301
111	0xbe9e924f	-0.30971
112	0xbd21d4d3	-0.039509606
113	0x3dab5720	0.08366227
114	0xbcb88a3e	-0.022526857
115	0xbe017c25	-0.12645014
116	0xbcdb7e91	-0.02679375
117	0x3ceca8f5	0.028889159
118	0xbcdb1402	-0.026742939
119	0x3c51a0ff	0.012794732
120	0x3d59c477	0.05316588
121	0xbda1f3a8	-0.07907802
122	0xbe2e3abc	-0.17014593
123	0xbc20c7d0	-0.009813264
124	0xbd465855	-0.048424084
125	0xbdffb911	-0.124864705
126	0xbd93dbfc	-0.07219693
127	0xbdb80193	-0.08984675
128	0x3d581528	0.05275455
129	0xbd9a79de	-0.075427756
130	0xbe1e295e	-0.15445468
131	0x3e502cb6	0.20329556
132	0x39ac9ce7	0.00032923298
133	0xbda7a2c6	-0.081853434
134	0x3da61db8	0.08111137
135	0xbd5eccc5	-0.054394502
136	0xbb7ee286	-0.0038892343
137	0x3de31dee	0.11089693
138	0xbdf98335	-0.12183229
139	0xbe67db4b	-0.22642247
140	0x3c9c9fcf	0.019119171
141	0x3de3b557	0.11118572
142	0x3d49a126	0.04922595
143	0x3e5fba89	0.21848501
144	0xbe5f7547	-0.21822082
145	0xbebacd5d	-0.36484805
146	0xbd0fbc45	-0.035091657
147	0xbe1d6ee2	-0.1537433
148	0xbe433f28	-0.19067061
149	0xbe53bce8	-0.20677531
150	0x3d43352c	0.04765813
151	0x3e85548c	0.26041067
152	0xbda24618	-0.079235256
153	0x3de84488	0.11341196
154	0xbe1d68e9	-0.15372051
155	0x3e857097	0.26062462
156	0xbe842178	-0.25806785
157	0xbc41ee29	-0.011836567
158	0x3de99a50	0.11406386
159	0x3e9e59d1	0.309279
160	0xbd575d4c	-0.05257921
161	0xbdb6b971	-0.08922089
162	0xbd41f08d	-0.047348548
163	0xbde7f17e	-0.11325358
164	0x3e92d28c	0.2867626
165	0xbe2d2f50	-0.1691258
166	0x3a44652b	0.0007491882
167	0x3d6074bf	0.054798838
168	0xbde69bde	-0.11260198
169	0x3d5bb08b	0.05363516
170	0xbdd2c9b2	-0.102923766
171	0x3e7f7c95	0.24949868
172	0x3d74b1c5	0.059739847
173	0x3e96e25b	0.2946957
174	0xbe36b2c5	-0.17841633
175	0xbdeb06d6	-0.11475913
176	0x3d319adf	0.043360587
177	0x3c9c2322	0.019059721
178	0xbe60f94b	-0.21970098
179	0x3dd6b704	0.10484126
180	0xbbb2c1d9	-0.0054552373
181	0xbd9a7816	-0.07542436
182	0xbe0731df	-0.13202618
183	0xbe744326	-0.2385374
184	0xbd2b74d9	-0.04185948
185	0x3dd53abd	0.10411594
186	0xbddc19bc	-0.10747096
187	0x3d8103f9	0.06299586
188	0x3dd7cd27	0.105371766
189	0x3deeff85	0.1166983
190	0x3e6864d1	0.22694708
191	0x3dcd7c91	0.10033525
192	0x3d4940f8	0.049134225
193	0x3dab0657	0.083508186
194	0x3d29bb0c	0.041438147
195	0x3d9bb093	0.07602038
196	0x3c33d718	0.010976575
197	0xbe570eaf	-0.21001695
198	0xbdb99cfe	-0.09063147
199	0xbe6eb895	-0.233126
200	0xbcec0e06	-0.02881528
201	0x3d7b82b0	0.06140393
202	0xbe114805	-0.1418763
203	0x3e48d583	0.19612698
204	0x3e0d66c7	0.13808738
205	0xbc396507	-0.011315591
206	0xbe10f307	-0.14155208
207	0xbcf40329	-0.029786663
208	0xbe23a36d	-0.1598031
209	0x3de39386	0.11112122
210	0xbd28197e	-0.041039936
211	0xbd831352	-0.064001694
212	0x3cb0597d	0.021527046
213	0x3e121b35	0.14268191
214	0x3e612792	0.21987751
215	0xbe62e279	-0.22156705
216	0xbe82bdcc	-0.2553543
217	0xbd8b1199	-0.06790466
218	0x3de557a6	0.11198358
219	0xbd11ccd2	-0.035595722
220	0xbe12f709	-0.14352049
221	0x3cb2798a	0.02178647
222	0xbcba66b8	-0.022754058
223	0xbe5687df	-0.20950268
224	0xbe18c79e	-0.14919898
225	0x3e8f7ca5	0.28024784
226	0xbd78cab0	-0.060740173
227	0x3e9cb2d6	0.3060519
228	0xbe6745c6	-0.2258521
229	0xbd2d594e	-0.042321496
230	0x3cc6322b	0.024193844
231	0x3df13938	0.11778492
232	0x3e1325cb	0.14369886
233	0xbe86c827	-0.2632458
234	0x3bc5069c	0.006012751
235	0x3e8e266f	0.27763698
236	0x3b9ebf68	0.0048445947
237	0xbd7f9a3a	-0.06240294
238	0x3c425833	0.011861849
239	0x3dad3207	0.084568076
240	0xbe3e1a74	-0.18564779
241	0x3c8ff91a	0.017574836
242	0xbe1b0b7d	-0.15141101
243	0x3dd7394b	0.10508975
244	0xbe40d035	-0.18829425
245	0xbd42f965	-0.047601122
246	0xbe7d79f9	-0.2475356
247	0xbead555b	-0.33854184
248	0xbe071491	-0.13191439
249	0x3ecff31a	0.4061516
250	0xbd8a08f5	-0.0673999
251	0xbe2afe48	-0.16698563
252	0x3d87e279	0.06634993
253	0xbdc1e5f3	-0.094676875
254	0xbdf267e7	-0.11836224
255	0xbe83cd79	-0.257427

conv4.0.bias f4 [64]
0	0x3f30c7c3	0.6905481
1	0xbddc7d14	-0.10766044
2	0xbec4a6aa	-0.38408405
3	0xbe235439	-0.15950097
4	0xbe526629	-0.20546784
5	0x3eb00bac	0.34383905
6	0x3daae420	0.08344293
7	0x3d80bc95	0.06285969
8	0x3d33efe8	0.043929964
9	0x3cb8f2a3	0.022576636
10	0x3e40a332	0.18812254
11	0x3e56e77c	0.20986742
12	0xbe82a5f0	-0.25517225
13	0x3e06301a	0.13104287
14	0xbec208a7	-0.37897226
15	0xbeab144f	-0.33413932
16	0xbd325907	-0.043541934
17	0x3e3a3b0a	0.18186584
18	0xbe631d7b	-0.22179215
19	0xbea2c0b8	-0.31787658
20	0xbcf8c68b	-0.03036811
21	0xbdaeb73d	-0.08531044
22	0xbe38e1cd	-0.18054886
23	0xbe569ddf	-0.2095866
24	0xbe5cda56	-0.21567664
25	0x3ece3f60	0.40282726
26	0x3d795b54	0.060878113
27	0xbdeb6581	-0.1149397
28	0x3e2e92f5	0.17048247
29	0xbe12d6ba	-0.14339724
30	0xbd3defb2	-0.04637117
31	0xbdd02776	-0.101637766
32	0x3f1ee63e	0.6207007
33	0xbec643c3	-0.38723573
34	0xbd5b4c38	-0.053539485
35	0x3ec8a7cf	0.39190528
36	0x3ed6eb92	0.419766
37	0xbea13d5f	-0.31492135
38	0x3ea49835	0.32147375
39	0x3ea7cd81	0.32773975
40	0x3f0edec2	0.5580865
41	0x3e5a12ec	0.2129628
42	0xbef6573d	-0.48113433
43	0x3d1e6b56	0.038676582
44	0xbe1b9da9	-0.15196861
45	0xbedd1692	-0.43181282
46	0xbe59d307	-0.21271907
47	0xbf100a05	-0.5626529
48	0x3ccdc57c	0.025118582
49	0xbe7cd89e	-0.24692008
50	0xbdbb1d75	-0.09136478
51	0xbf21e193	-0.63234824
52	0xbe9c0965	-0.30475917
53	0x3e869aeb	0.26290068
54	0xbce2bf27	-0.02767904
55	0x3e18bcfc	0.14915842
56	0xbea93fa7	-0.33056375
57	0xbe74e66c	-0.23916024
58	0xbe46a58d	-0.1939909
59	0x3f196ea5	0.59934455
60	0xbd78acf9	-0.060711835
61	0xbe5ce195	-0.21570428
62	0xbd94d12c	-0.07266459
63	0xbf17816f	-0.59181875

conv5.0.weight f4 [128, 64, 3, 3]
0	0x3bf43b89	0.007453386
1	0x3d68d8b1	0.056847278
2	0x3d4c12bc	0.049822554
3	0x3e013126	0.12616405
4	0x3d35e0e5	0.04440393
5	0xbdf11802	-0.11772157
6	0x3c271fd7	0.010200462
7	0x3db7a40a	0.08966835
8	0xbb6cb967	-0.003612125
9	0x3d835608	0.064128935
10	0xbdc3b401	-0.095558174
11	0xbdf0a2bf	-0.11749791
12	0x3e758347	0.2397586
13	0xbdb1854f	-0.08668005
14	0x3af1214e	0.0018396766
15	0xbd28d2b9	-0.041216586
16	0xbe33c2d3	-0.17554788
17	0x3d2064a7	0.03915849
18	0xbdb12cc6	-0.08651118
19	0xbe043231	-0.12909772
20	0xbda9facf	-0.08299791
21	0xbe5e8ba1	-0.21732952
22	0x3d574ff1	0.052566472
23	0xbbb9ef05	-0.0056742453
24	0x3d59722e	0.053087406
25	0xbdfc540c	-0.12320718
26	0xbdf8ff29	-0.12158043
27	0x3e0c52a5	0.13703401
28	0xbdda4406	-0.10657506
29	0x3d4efdab	0.050534885
30	0x3e0a160f	0.13484977
31	0x3c9f79f9	0.01946734
32	0x3d798a8a	0.060923137
33	0xbd9479ac	-0.072497696
34	0x3c244b2e	0.01002769
35	0xbcadd4dd	-0.021219665
36	0xbcbd4e8f	-0.023108749
37	0xbd12929f	-0.03578436
38	0xbd87ab17	-0.0662443
39	0x3c3d54dc	0.011555877
40	0xbb7a1c9d	-0.0038164028
41	0x3e06b696	0.13155589
42	0xb9c0c13c	-0.00036765065
43	0xbe13fb41	-0.14451315
44	0xbe1ba217	-0.15198551
45	0xbdeb4b10	-0.114889264
46	0x3b2b8049	0.0026168993
47	0x3beb19cb	0.0071747056
48	0x3d983ee1	0.07433868
49	0x3da2daf1	0.07951916
50	0xbdb01e70	-0.085995555
51	0xbc88ae81	-0.016684772
52	0x3cf87b00	0.030332088
53	0xbdb18560	-0.086680174
54	0xbc9c59eb	-0.019085845
55	0xbd8ee4a2	-0.06977202
56	0xbc9a8d59	-0.018866228
57	0xbdf5d51d	-0.12003539
58	0xbdb79847	-0.089645915
59	0x3b066dfc	0.0020512333
60	0x3da1d07a	0.07901092
61	0xbd0af8ae	-0.033928566
62	0xbda84a3e	-0.082172856
63	0x3d8c15bb	0.06840082
64	0x3e727119	0.23675956
65	0xbd4d394b	-0.050103467
66	0x3d143758	0.036185592
67	0xbe066b50	-0.13126874
68	0xbd973488	-0.073830664
69	0xbd2a7539	-0.0416157
70	0xbce054ca	-0.02738418
71	0xbd787633	-0.0606596
72	0x3df543f9	0.119758554
73	0x3e1b4485	0.15162857
74	0x3d829371	0.063757785
75	0x3e014dd5	0.12627347
76	0xbdc85bd4	-0.0978314
77	0x3d5930cc	0.053025052
78	0xbde8322b	-0.11337694
79	0x3d7ddd74	0.061978772
80	0x3d09bdd4	0.0336283
81	0xbb99f2dc	-0.0046981405
82	0x3d8bd477	0.06827634
83	0xbcb0fbff	-0.021604536
84	0x3e09af3f	0.13445757
85	0xbcddbc0b	-0.027067205
86	0xbd3406b6	-0.043951713
87	0xbdc3b726	-0.09556417
88	0x3d8515e2	0.064983144
89	0x3ba3f0b2	0.0050030584
90	0xbc0947b6	-0.008378914
91	0x3db4080e	0.08790599
92	0xbce922b9	-0.02845894
93	0xbd15c4f3	-0.03656478
94	0x3bfe43e7	0.0077595594
95	0xbd527fa3	-0.051391255
96	0x3d6f55bf	0.058431383
97	0xbd0bbf2f	-0.034117874
98	0xbc10f9f9	-0.008848661
99	0x3d2ca44a	0.042148866
100	0xbd4b47fd	-0.0496292
101	0xbcbc72ed	-0.02300402
102	0x3d8fcb04	0.07021144
103	0x3c952c01	0.01820946
104	0xbdea97ce	-0.11454736
105	0xbd0df4c3	-0.03465725
106	0xbbc2fcfd	-0.0059505687
107	0xba98b3f2	-0.0011650308
108	0xbdb75a78	-0.089528024
109	0xbd7c000a	-0.061523475
110	0x3c0226dd	0.007943836
111	0xbd396e37	-0.045271125
112	0xbe34809b	-0.17627184
113	0xbd015808	-0.031578094
114	0x3e389fa0	0.18029642
115	0xbb516395	-0.0031950225
116	0x3ded6776	0.11591999
117	0xbdb06bc6	-0.08614306
118	0x3ce545ae	0.027987327
119	0xbd29cf58	-0.041457504
120	0xbe386748	-0.18008149
121	0xbd696445	-0.05698039
122	0x3e49cdd8	0.1970743
123	0x3da2fa10	0.07957852
124	0xbca7ada0	-0.020468533
125	0x3d8c8d7a	0.06862922
126	0xbd92b6ac	-0.07163748
127	0xbd89aafb	-0.06722065
128	0xbd4c23f0	-0.04983896
129	0x3aa81dd8	0.0012826277
130	0x3de0d5a8	0.10978252
131	0x3c12c051	0.008956985
132	0xbdbdd355	-0.09268824
133	0x3c275786	0.010213738
134	0x3da89d81	0.082331665
135	0x3d4dd000	0.050247192
136	0xbe083869	-0.13302769
137	0xbe031dc6	-0.12804326
138	0x3d6ab2c3	0.057299387
139	0xbd8491f2	-0.06473149
140	0xbcda5006	-0.026649486
141	0x3c53e608	0.012933262
142	0xbdb12bdc	-0.08650944
143	0xbd3c406f	-0.045959886
144	0xbdb05693	-0.08610263
145	0xbdbf9b9b	-0.09355851
146	0xbcacc7c9	-0.021091359
147	0xbdd5adde	-0.10433553
148	0x3b80849b	0.003922058
149	0xbd906efa	-0.07052417
150	0x3b9086e2	0.0044106105
151	0x3dbf62cc	0.09345016
152	0x3b822cc4	0.0039726216
153	0x3df47bdd	0.119376875
154	0x3e0f23f7	0.13978563
155	0xbd52d212	-0.05146987
156	0xbd554a07	-0.05207255
157	0xbda75d1b	-0.08172055
158	0x3d69339d	0.056933988
159	0xbdb4ff49	-0.08837754
160	0xbdd5de72	-0.10442819
161	0xbda1cd79	-0.07900519
162	0xba1a42aa	-0.00058845675
163	0xbc547226	-0.012966668
164	0xbc9ef482	-0.0194037
165	0xbb13539c	-0.0022480255
166	0xbdc68636	-0.096935675
167	0xbe02447f	-0.12721442
168	0x3d06ec4e	0.0329402
169	0x3db8f796	0.09031598
170	0x3de769de	0.112994894
171	0xbc85cda2	-0.016333405
172	0x3db1a29f	0.08673596
173	0xbdad478f	-0.08460914
174	0x3cfc86a3	0.030825919
175	0x3de87c34	0.11351815
176	0xbcd42491	-0.025896342
177	0x3e102490	0.14076447
178	0xbdd7391f	-0.10508942
179	0xbda956ad	-0.08268485
180	0xbdc6a5da	-0.096996024
181	0x3d3d145f	0.046162006
182	0xbdc5b9db	-0.0965459
183	0x3e0ee60e	0.13954946
184	0xbd5b5134	-0.05354424
185	0x3d34c3f0	0.044132173
186	0x3d13588e	0.035973124
187	0xbdc0ccfa	-0.09414096
188	0xbd8d9e57	-0.069149666
189	0x3d1d9640	0.038473368
190	0x3cf6267e	0.030047651
191	0xbccfde48	-0.025374547
192	0xbca04150	-0.019562393
193	0x3e15bee3	0.14623599
194	0xbcd676c6	-0.026179682
195	0xbd8b8272	-0.0681199
196	0xbe223a00	-0.15842438
197	0x3d19d5c4	0.03755738
198	0x3c3c8565	0.011506413
199	0x3deb0691	0.11475862
200	0xbbff37b7	-0.007788624
201	0xbc8fd6c7	-0.017558469
202	0x3d88b6c0	0.06675482
203	0xbc95ecd7	-0.01830141
204	0xbcc607a5	-0.024173567
205	0x3d348fed	0.04408257
206	0x3cd2683c	0.025684468
207	0xbd367b4b	-0.044551175
208	0xbe02810d	-0.12744541
209	0xbd8e4722	-0.06947161
210	0xbdc551b8	-0.09634727
211	0xbdd7f649	-0.10545022
212	0x3dbe002b	0.09277376
213	0xbd821d0a	-0.06353195
214	0xbe3d36aa	-0.18477884
215	0x3d729b37	0.059230056
216	0xbd924914	-0.07142845
217	0xbdabc2e3	-0.08386781
218	0x3dbac296	0.091191456
219	0x3e15ca05	0.14627846
220	0x3d98c674	0.07459727
221	0x3e17c0dd	0.14819665
222	0x3d09c9bb	0.03363965
223	0x3e0b96a4	0.13631684
224	0xbdc12cd4	-0.094323784
225	0xbd5bd4e8	-0.05366984
226	0x3dba6433	0.09101143
227	0xbd0763b4	-0.03305407
228	0x3d718851	0.058967892
229	0x3d9ad8aa	0.07560857
230	0xbd2e18ee	-0.042504244
231	0xbbc9df01	-0.0061606173
232	0x3af73238	0.0018859571
233	0xbdd1bfe0	-0.102416754
234	0x3dd60fbf	0.10452222
235	0x3da15e39	0.078793
236	0xbcbb4166	-0.022858333
237	0xbe25cbeb	-0.1619107
238	0x3d6ea601	0.058263782
239	0xbd61d642	-0.055135973
240	0xbd56055a	-0.052251197
241	0xbda25faa	-0.07928403
242	0xbd847907	-0.06468397
243	0xbd9e3f8d	-0.07726965
244	0x3d02ce55	0.031935055
245	0x3d53f3a1	0.051746015
246	0x3d93dcfc	0.07219884
247	0x3d96593d	0.073412396
248	0xbcf36cb7	-0.029714925
249	0x3df9805c	0.12182686
250	0x3e03b461	0.12861778
251	0xbc608e14	-0.013705749
252	0x3e171134	0.14752656
253	0xbdb7e391	-0.08978952
254	0xbdcd42db	-0.10022517
255	0x3d58f348	0.052966386

conv5.0.bias f4 [128]
0	0x3d420366	0.047366522
1	0x3e391ccf	0.18077396
2	0xbe11e354	-0.14246875
3	0xbd4ac551	-0.04950458
4	0xbe591edb	-0.21203177
5	0xbd5e60eb	-0.054291647
6	0xbe8d344d	-0.27578965
7	0xbe2388bc	-0.15970129
8	0x3e0d3edc	0.1379351
9	0x3e24bfc2	0.16088775
10	0xbe271b63	-0.16319041
11	0xbc964bf5	-0.018346766
12	0xbe54c42f	-0.20777963
13	0xbe00c626	-0.12575588
14	0x3e518273	0.20459919
15	0xbd9c8d44	-0.07644132
16	0xbe0b8888	-0.13626301
17	0x3e818ed7	0.2530429
18	0xbe5dc08d	-0.21655484
19	0x3d8c7e55	0.068600334
20	0xbdd7b124	-0.10531834
21	0x3dbed343	0.09317639
22	0xbd0f1688	-0.034933597
23	0x3de326db	0.110913955
24	0x3d9d773b	0.07688757
25	0xbe3f564f	-0.18685268
26	0xbdad7bf7	-0.0847091
27	0x3e444560	0.1916709
28	0xbd22dcd6	-0.039761387
29	0x3bed0c86	0.007234159
30	0xbeafa764	-0.34307396
31	0x3d6774ca	0.056507863
32	0xbdc50a7b	-0.096211396
33	0x3ea6f9c8	0.32612443
34	0x3d352797	0.04422721
35	0x3e87e46e	0.26541466
36	0x3e84bad8	0.259238
37	0xbcfe1d7b	-0.031019917
38	0xbd9cc62e	-0.07654987
39	0xbdc69294	-0.09695926
40	0x3d6699cb	0.056299012
41	0xbd974521	-0.07386232
42	0xbd8674af	-0.065652244
43	0x3e15accc	0.14616698
44	0xbcd42942	-0.02589858
45	0xbe89c17c	-0.2690543
46	0x3e9b35f9	0.30314615
47	0xbe2137c9	-0.15743937
48	0x3e28ebb9	0.16496171
49	0xbcf0f0d2	-0.029411707
50	0xbe1c524e	-0.15265772
51	0xbe0e5879	-0.13900937
52	0x3c0acdd6	0.008471927
53	0x3db877b0	0.090072036
54	0xbe05d99b	-0.13071291
55	0x3e97a15a	0.2961529
56	0x3dcee2c2	0.10101844
57	0xbe7343cf	-0.23756336
58	0x3ce416e1	0.02784294
59	0xbda38389	-0.07984073
60	0xbe2c95e3	-0.16854052
61	0x3b8599ba	0.0040771635
62	0xbe49185f	-0.19638203
63	0xbd97d001	-0.074127205
64	0xbe1f4c0b	-0.15556352
65	0xbdf9fbd3	-0.12206235
66	0xbc391990	-0.0112975985
67	0x3ed48551	0.41507962
68	0xbe790040	-0.24316502
69	0xbdddfa37	-0.1083874
70	0xbd6a437c	-0.057193264
71	0xbe5e1036	-0.21685871
72	0xbea9dfdb	-0.331786
73	0x3d6390c8	0.055557996
74	0x3d1cb8c6	0.03826215
75	0xbea8fa2f	-0.33003375
76	0xbe0ebc5e	-0.13939044
77	0xbdc0bfba	-0.09411569
78	0x3e40a356	0.18812308
79	0x3e0ad9fd	0.13559718
80	0xbd6ed751	-0.05831081
81	0xbe4ef475	-0.2021044
82	0x3e428f68	0.19000018
83	0x3c584ba9	0.013201633
84	0xbe34555d	-0.17610689
85	0xbd487364	-0.04893817
86	0xbdb024fb	-0.086008035
87	0xbda3d463	-0.07999494
88	0xbb509515	-0.003182714
89	0x3e0a019e	0.1347718
90	0xbdd03f46	-0.101683185
91	0x3e52ee72	0.20598772
92	0x3cf0ef7e	0.029411074
93	0xbd092fac	-0.03349273
94	0x3c9d4488	0.019197717
95	0x3e979179	0.29603174
96	0x3ca90d76	0.020636301
97	0x3c82de6c	0.0159752
98	0x3e475e0c	0.1946947
99	0x3d9d8e4e	0.07693158
100	0xbe0fcce7	-0.14043008
101	0xbe510ab9	-0.20414247
102	0xbdcdcc9a	-0.1004879
103	0x3b970635	0.004608894
104	0x3c84609a	0.016159344
105	0x3e69fa14	0.22849303
106	0x3e9ace81	0.30235675
107	0xbe25ac15	-0.16178925
108	0xbc91b42f	-0.017786114
109	0x3e1310e7	0.14361916
110	0xbc19e095	-0.009391923
111	0x3d979bf4	0.074027926
112	0x3d793351	0.060839955
113	0x3e0f4616	0.1399158
114	0x3ddf392f	0.10899579
115	0x3e4f48ee	0.20242664
116	0x3c6069ff	0.013697146
117	0x3d8c0430	0.06836736
118	0x3e44472d	0.19167776
119	0xbdde5506	-0.10856061
120	0xbd422b08	-0.04740432
121	0xbdd08015	-0.1018068
122	0xbd325846	-0.043541215
123	0x3e8bee25	0.27330127
124	0x3c919b4d	0.017774248
125	0x3db90deb	0.09035858
126	0xbe14dc64	-0.14537197
127	0xbd7dd0f6	-0.06196686

dense.0.weight f4 [120, 128]
0	0x3d88c3bb	0.066779576
1	0x3d9d5e88	0.07684046
2	0x3d9a063f	0.075207226
3	0xbde9c3b3	-0.1141428
4	0x3e372162	0.17883828
5	0x3dcac198	0.09900206
6	0xbdd3fef5	-0.103513636
7	0xbdba4a29	-0.09096176
8	0xbd871cb5	-0.06597272
9	0xbc379ad3	-0.011206347
10	0xbe1528cd	-0.14566346
11	0x3d9d9550	0.07694495
12	0xbdb57ea9	-0.08862049
13	0xbdaba97a	-0.083819345
14	0xbe04c7ba	-0.12966815
15	0x3d7962e8	0.06088534
16	0xbe54f389	-0.20796026
17	0x3ca0e288	0.019639269
18	0xbe01a2c0	-0.1265974
19	0xbccff26f	-0.025384156
20	0x3d513b8a	0.05108217
21	0xbd39731f	-0.045275804
22	0xbdc88125	-0.09790257
23	0x3d7c42f4	0.06158729
24	0xbd912a5e	-0.07088159
25	0xbde4a43e	-0.11164139
26	0xbc36094a	-0.011110613
27	0xbdb8543c	-0.090004414
28	0xbd46bcc9	-0.048519883
29	0xbde85593	-0.11344447
30	0x3c98af58	0.018638298
31	0x3e3372c3	0.17524247
32	0x3dda9836	0.10673563
33	0xbc81d746	-0.01584972
34	0x3e0419ad	0.1290042
35	0xbe19295e	-0.14957187
36	0x3dba227d	0.09088609
37	0x3c369471	0.01114379
38	0x3d93e572	0.072214976
39	0xbc98b627	-0.018641545
40	0x3c1feac2	0.0097605605
41	0xbd711048	-0.058853418
42	0x3d0c53c6	0.03425958
43	0xbd1a95ff	-0.037740704
44	0x3d02bf4a	0.03192071
45	0x3c0685b9	0.008210593
46	0xbd95173a	-0.07279821
47	0xbde2a996	-0.11067502
48	0xbde21496	-0.11039083
49	0x3da40247	0.08008247
50	0x3c2ec834	0.010667849
51	0xbe2ece39	-0.17070855
52	0x3dfb9487	0.12284189
53	0xbd7794b7	-0.06044456
54	0x3d80d8dd	0.062913634
55	0x3b890bb5	0.004182304
56	0x3e2b0432	0.16700819
57	0xbc8ea967	-0.017414762
58	0x3e661ecf	0.2247269
59	0xbd8c55fb	-0.06852337
60	0xbe02a22b	-0.12757175
61	0x3cec2efd	0.028831
62	0x3cf67f63	0.03009004
63	0xbe12e753	-0.14346056
64	0x3dc27717	0.09495371
65	0x39ac1491	0.0003282172
66	0x3c9d28ac	0.019184433
67	0x3ddeb3d3	0.108741425
68	0x3d43b4e3	0.04777993
69	0xbd9a37f7	-0.07530206
70	0x3e1eb45a	0.15498486
71	0xbc99efdd	-0.018791134
72	0xbd8ef29c	-0.06979868
73	0x3d7bc59c	0.06146775
74	0xbdae3aff	-0.08507346
75	0xbd74a8b3	-0.059731197
76	0xbda4782d	-0.08030734
77	0xbda58604	-0.08082202
78	0x3ceece75	0.02915118
79	0xbc457538	-0.012051873
80	0xbdee6cc5	-0.1164184
81	0x3dc8671a	0.0978529
82	0x3d63fd7c	0.055661663
83	0x3d8bc167	0.06823998
84	0x3d0873cc	0.033313558
85	0x3d628d7d	0.055310715
86	0xbcf988c9	-0.030460732
87	0xbcb61cac	-0.022230469
88	0xbd0f08c9	-0.034920488
89	0xbe182487	-0.14857684
90	0xbdf1b7d6	-0.11802642
91	0x3c576cff	0.013148545
92	0x3bb86ba6	0.005628067
93	0xbdb49f0d	-0.08819399
94	0xbdb43e50	-0.08800948
95	0x3dea91c2	0.11453582
96	0xbdf6a892	-0.12043871
97	0x3e3624b1	0.17787434
98	0xbd2e7eb7	-0.042601313
99	0x3d072d85	0.033002395
100	0x3da125da	0.07868548
101	0xbdea3461	-0.11435772
102	0x3d03c2ee	0.03216832
103	0xbc16acbf	-0.009196459
104	0xbe2c090f	-0.1680033
105	0xbd5bccf1	-0.053662244
106	0xbdcbcce6	-0.09951191
107	0xbbab6725	-0.0052308016
108	0xbc3df3dd	-0.011593786
109	0x3d6f2840	0.058387995
110	0xbd0c8660	-0.034307837
111	0x3d3c6202	0.045991905
112	0xbd6202af	-0.05517834
113	0xbcb2299c	-0.021748357
114	0xbcce4a82	-0.025182012
115	0x3d2545ac	0.040349647
116	0x3c8e777c	0.017390959
117	0xbdb08481	-0.08619023
118	0x3cd63ab9	0.026151048
119	0xbd9fc49b	-0.078011714
120	0xbdaf44f7	-0.08558076
121	0x3d27e724	0.040991917
122	0x3d4dd16b	0.050248545
123	0xbc4a4b5f	-0.012347071
124	0xbcd65c25	-0.026166985
125	0xbde1e69f	-0.110303156
126	0xbd0d2f89	-0.03446916
127	0x3db62930	0.08894575
128	0xbcda7c14	-0.026670493
129	0xbcb48783	-0.022037273
130	0xbdc3b7b0	-0.0955652
131	0x3cf6fe5f	0.03015059
132	0x3d9ccc61	0.0765617
133	0xbd6dc12a	-0.058045544
134	0xbe1773b3	-0.1479023
135	0xbcbc4354	-0.022981323
136	0xbda816a9	-0.08207447
137	0xbd7316ee	-0.05934804
138	0xbc0f8a9d	-0.008761075
139	0x3d345e58	0.044035286
140	0x3d653061	0.05595434
141	0x3e066606	0.13124856
142	0xbd96857b	-0.07349678
143	0xbda6dc27	-0.081474595
144	0xbe383ecb	-0.17992704
145	0x3cc5dc75	0.024152974
146	0xbb5578ff	-0.003257334
147	0xbe0e62f5	-0.13904937
148	0x3dd27d8d	0.10277853
149	0x3d30acd2	0.043133564
150	0xbd54b19a	-0.051927187
151	0x3d353dc3	0.044248354
152	0x3d1a74b4	0.037708953
153	0x3da99f4f	0.08282339
154	0x3df8c500	0.1214695
155	0xbd2c6b0a	-0.042094268
156	0x3d3bfb74	0.0458941
157	0xbc5047a0	-0.012712389
158	0x3dee1737	0.11625522
159	0x3e3ac316	0.18238482
160	0xbcb79d40	-0.02241385
161	0xbe27c917	-0.16385303
162	0x3d2c030e	0.0419951
163	0x3cb255d9	0.021769451
164	0xbda17647	-0.07883888
165	0x3e416fa6	0.18890247
166	0x3d58a9b8	0.05289623
167	0x3d68211c	0.0566722
168	0xbc93ecc3	-0.018057233
169	0xbdbef94d	-0.09324894
170	0xbce8f619	-0.028437661
171	0xbd63bf01	-0.055602077
172	0x3e427d16	0.18993029
173	0x3d7b0f1c	0.061293706
174	0xbd9d1496	-0.07669942
175	0xbe0e1e8c	-0.1387884
176	0xbd6fa0cb	-0.058502953
177	0x3d7f8308	0.06238082
178	0x3d141c87	0.03616002
179	0xbc3ef3ba	-0.011654789
180	0x3d5b096b	0.05347578
181	0xbd076b34	-0.03306122
182	0x3d8f1318	0.06986064
183	0x3d15ba9c	0.036554918
184	0x3c2fc5a8	0.010728277
185	0x3d497d2f	0.04919165
186	0x3e2dcf11	0.16973521
187	0xbdb53d07	-0.08849531
188	0xbe66fc18	-0.22557104
189	0xbb96e1f7	-0.004604574
190	0x3c3bb757	0.011457286
191	0x3d6cb716	0.05779179
192	0x3dfa102b	0.12210115
193	0xbd7c04f7	-0.061528172
194	0x3dc47d55	0.09594218
195	0x3bf4f726	0.0074757515
196	0xbd488e21	-0.04896367
197	0x3d8082ac	0.06274924
198	0xbe3c81be	-0.18408868
199	0xbdaff04a	-0.085907534
200	0xbd3c32d5	-0.045946915
201	0xbe046255	-0.12928136
202	0xbc8f284a	-0.017475266
203	0xbd8b90df	-0.06814741
204	0x3d1766c2	0.03696323
205	0xbd1273cb	-0.03575496
206	0xbe273742	-0.16329673
207	0xbda634e4	-0.08115557
208	0x3d1779c2	0.03698135
209	0xbd1e4dae	-0.0386483
210	0x3dca2e43	0.09872105
211	0xbda13892	-0.07872118
212	0x3d89edc6	0.06734805
213	0x39aa349b	0.0003246412
214	0x3ce97f08	0.028502956
215	0xbd93a42a	-0.07209046
216	0xbd6ee030	-0.05831927
217	0xbd51ef95	-0.051253874
218	0xbb150c19	-0.0022742806
219	0x3e69b233	0.22821884
220	0x3cd16c11	0.025564225
221	0x3db1d7ad	0.08683715
222	0x3bddd7f1	0.006770127
223	0xbd54660c	-0.051855132
224	0xbceb4566	-0.028719615
225	0x3dda95a3	0.10673072
226	0xbdc762d6	-0.09735648
227	0x3c5435ab	0.012952249
228	0x3da46643	0.080273174
229	0xbc34ab3e	-0.011027155
230	0xbdf0f0e7	-0.117646985
231	0x3da53875	0.08067409
232	0x3ba05627	0.0048930827
233	0x3d8ae714	0.06782356
234	0xbd460106	-0.04834082
235	0xbd1cce66	-0.038282774
236	0x3e0b2398	0.13587797
237	0xbe3017ea	-0.17196622
238	0x3c75a1d4	0.014992196
239	0xbd047640	-0.032339334
240	0xbd86adbd	-0.06576107
241	0xbdc42e92	-0.09579195
242	0xbd772caf	-0.060345348
243	0x3e137d1c	0.14403194
244	0x3cdca8d0	0.026935965
245	0xbe2bfdc6	-0.16796026
246	0x3d5cc086	0.053894542
247	0x3d4f8c67	0.050671007
248	0xbdb54612	-0.088512555
249	0x3e7d0d4c	0.24712104
250	0x3d95b160	0.07309222
251	0xbd140356	-0.036135994
252	0x3c51a51f	0.012795716
253	0xbcf60a8b	-0.030034324
254	0x3ddc4d8f	0.10756981
255	0xbdc0fcd9	-0.09423227

dense.0.bias f4 [120]
0	0x3e07138f	0.13191055
1	0xbd68ddbb	-0.056852084
2	0xbe06572a	-0.13119188
3	0x3cec3d6e	0.028837886
4	0xbdf1df4e	-0.1181017
5	0x3d99789b	0.07493707
6	0x3e9355f3	0.28776512
7	0xbe49acec	-0.1969487
8	0x3e0f5352	0.13996628
9	0x3e9146ef	0.2837443
10	0xbdb6c66a	-0.08924563
11	0xbd8f6df7	-0.07003396
12	0xbe011a51	-0.12607695
13	0x3c6491fa	0.013950819
14	0x3b2827c1	0.002565846
15	0x3e13d35d	0.14436097
16	0x3ebf60c7	0.37378523
17	0xbc4ba0bc	-0.012428459
18	0xbe3aa508	-0.18227017
19	0xbda068ef	-0.078325145
20	0x3b3f1007	0.002915384
21	0x3c8f15c3	0.017466431
22	0x3c6bf8b7	0.01440256
23	0x3ebe9066	0.37219542
24	0xbd9d61de	-0.07684682
25	0xbd3db681	-0.046316627
26	0xbdf72f6d	-0.120695926
27	0xbdc926be	-0.098218426
28	0xbdb9d61e	-0.09074043
29	0x3eb862b3	0.36012802
30	0x3e2df776	0.1698893
31	0x3ef9c49c	0.48782814
32	0x3d382231	0.044954482
33	0x3f543288	0.82889605
34	0xbb922248	-0.004459653
35	0x3ddb188d	0.10698042
36	0x3dd825b2	0.10554065
37	0xbd503610	-0.050832808
38	0x3d0228a7	0.03177705
39	0x3f0d0536	0.55086076
40	0xbd81d972	-0.063403025
41	0x3f9513a3	1.1646618
42	0xbe4e288f	-0.2013266
43	0xbd8771d2	-0.066135064
44	0x3d4661e4	0.0484332
45	0x3d446a2b	0.047952812
46	0x3d8b8fd9	0.06814546
47	0x3e978983	0.295971
48	0x3d2ff538	0.04295847
49	0x3efa7408	0.4891665
50	0xbd52f7f2	-0.05150599
51	0x3f10fda6	0.56637037
52	0xbdf300c7	-0.11865383
53	0xbdd749bd	-0.10512111
54	0x3de1ce11	0.11025632
55	0x3be7e61b	0.0070769913
56	0xbd006064	-0.031341925
57	0x3e691a01	0.22763826
58	0x3d5c4bbf	0.053783175
59	0x3ca1ef05	0.019767294
60	0xbdaea095	-0.08526722
61	0xbe1b761d	-0.15181775
62	0x3d366a4d	0.04453497
63	0x3dbb6be5	0.091514386
64	0x3d5afcbd	0.053463686
65	0xbd0741b9	-0.033021662
66	0xbd9f3049	-0.077728815
67	0x3e2fee3c	0.17180723
68	0xbdde9585	-0.10868362
69	0xbd736e17	-0.05943116
70	0xbc015681	-0.007894159
71	0x3ea734e5	0.32657543
72	0x3e3ebcc9	0.18626703
73	0x3e3ec7ba	0.18630877
74	0x3d5b7c42	0.0535853
75	0xbe8e9df0	-0.27854872
76	0x3e9904d4	0.29886496
77	0x3ed9c924	0.4253627
78	0xbdda481a	-0.106582835
79	0x3cffaf11	0.031211408
80	0x3d57201e	0.052520864
81	0x3dacdd4f	0.08440649
82	0x3ea6228f	0.3244824
83	0xbcfa7464	-0.030573077
84	0x3dd0c05d	0.101929404
85	0x3ea06e73	0.31334266
86	0xbd8d8591	-0.069102414
87	0xbd7b292d	-0.061318565
88	0xbe2b8986	-0.1675168
89	0xbde7035d	-0.11279938
90	0x3d19f000	0.037582397
91	0x3d9dd586	0.07706742
92	0xbcc6e1e4	-0.024277635
93	0xbe7b82ea	-0.24561659
94	0x3ea569fa	0.32307416
95	0xbc069d40	-0.008216202
96	0xbd15e25d	-0.03659283
97	0x3e4ab893	0.19796972
98	0xbdbf3560	-0.09336352
99	0x3e203b9c	0.15647739
100	0xbca7f3c0	-0.020501971
101	0xbd224fcb	-0.039626878
102	0x3d3d7ef6	0.046263658
103	0x3e7d645c	0.24745315
104	0x3daa324c	0.083103746
105	0x3f2c5e49	0.6733137
106	0xbd078c69	-0.03309289
107	0xbd7a53ea	-0.061115183
108	0xbd6e8bb7	-0.05823871
109	0x3de551d3	0.11197247
110	0x3ebd8c40	0.37021065
111	0x3d0a7226	0.033800267
112	0x3e3c8d42	0.1841326
113	0x3f1211f0	0.5705862
114	0xbd94e152	-0.07269539
115	0xbd903649	-0.07041604
116	0xbd8d09c8	-0.06886631
117	0xbd0ae99e	-0.0339142
118	0xbaac323f	-0.0013137533
119	0xbd21c2f3	-0.03949256
